bgpsyche/data/models/bgpsyche.pt (torch, 38974 bytes, 75 tensors)

rnn_as_level.weight_ih_l0 f4 [8, 15]
0	0xc0114311	-2.2697184
1	0x3e79ed54	0.2440694
2	0xbd52a9af	-0.051431354
3	0x3f368ee7	0.713118
4	0xbfe0dab3	-1.7566742
5	0xbf49a4c5	-0.78767043
6	0xbedaf19e	-0.42762464
7	0xbf419ce2	-0.7563001
8	0xbe2571e3	-0.16156726
9	0xbe18c1db	-0.149177
10	0x3ee6625d	0.4499692
11	0x3eead16f	0.4586291
12	0xbe9e6bc7	-0.30941603
13	0x3e413bd7	0.18870483
14	0xbfa3fbdf	-1.281124
15	0xbee6aff3	-0.45056114
16	0xbd2a2f09	-0.041548762
17	0x3f3fe3b2	0.7495681
18	0x3e83dac9	0.25752857
19	0x3e5877d3	0.2113946
20	0x3ddacbcc	0.106834024
21	0x3e294162	0.16528848
22	0xbcb22a17	-0.021748586
23	0x3ea75e16	0.3268897
24	0x3e31b4bf	0.17354105
25	0xbf02072f	-0.5079221
26	0xbee7fa97	-0.45308372
27	0x3eae35ff	0.3402557
28	0xbcc77856	-0.024349373
29	0xbefe11c3	-0.49622926
30	0xbe5e6db3	-0.21721534
31	0xbe84cf43	-0.25939378
32	0xbfbe95b6	-1.4889438
33	0x3f172c5f	0.5905208
34	0x3d1635c7	0.03667238
35	0x3ebdfcbe	0.3710689
36	0xbf432424	-0.7622702
37	0xbdc26809	-0.094924994
38	0xbf8e33b8	-1.1109533
39	0xbd8f86c7	-0.070081286
40	0xbf65065d	-0.89462835
41	0xbea1a145	-0.3156835
42	0xbf0468af	-0.51722234
43	0x3e3e5e95	0.18590768
44	0xbece2d73	-0.4026905
45	0xbfed806a	-1.8554814
46	0x3d602125	0.05471911
47	0x3e5cb0e7	0.21551858
48	0xbf7d799e	-0.990137
49	0x3feb0670	1.836134
50	0x3f8a8476	1.0821674
51	0x3f060e1b	0.52365273
52	0xbe1b0f39	-0.15142526
53	0x3eaa2423	0.33230695
54	0x3e644bea	0.22294584
55	0xbe901d47	-0.28147337
56	0x40a1893e	5.048003
57	0x3ed7a823	0.42120466
58	0xbe958ee5	-0.29210582
59	0x3fe962cb	1.8233274
60	0xbf15b5cd	-0.5848053
61	0x3d3de763	0.046363246
62	0xbf502e8a	-0.8132101
63	0xbec68441	-0.38772777
64	0xbf9a44b4	-1.2052217
65	0xbfee7cb0	-1.8631802
66	0xbf631b19	-0.8871322
67	0xbf9cb8ac	-1.2243857
68	0xbec53e37	-0.3852403
69	0xbf393abe	-0.7235526
70	0x3bfde4c5	0.0077482187
71	0xbd06c9aa	-0.032907166
72	0xbf9acb3b	-1.2093271
73	0x3e8ad998	0.27119136
74	0xbfc327ab	-1.5246481
75	0xbe908fa0	-0.28234577
76	0x3efbb3d3	0.49160632
77	0x3dc1e529	0.09467537
78	0xbead3d06	-0.3383562
79	0xbee55418	-0.4479072
80	0x3eaedecd	0.34154359
81	0x3ea234dc	0.31680954
82	0x3e12f288	0.14350331
83	0x3f1d15eb	0.6136157
84	0x3e6b8b82	0.23002437
85	0x3f38ae88	0.72141314
86	0x3f118004	0.5683596
87	0xbda1d02c	-0.07901034
88	0xbead1690	-0.33806276
89	0x3eaca144	0.33716786
90	0xbfe39183	-1.7778782
91	0xbf1327d8	-0.5748267
92	0xbd4b731d	-0.049670327
93	0xbf96291b	-1.1731294
94	0x3f1b1e7e	0.605934
95	0x3f005c9a	0.501413
96	0xbd301c42	-0.0429957
97	0xbf3217fa	-0.69567835
98	0xbfb24a72	-1.3928969
99	0xbf6975e9	-0.9119554
100	0x3eb79d96	0.35862416
101	0xbf8fb6b5	-1.1227633
102	0x3f734e7b	0.95041627
103	0x3e816f00	0.2528
104	0xbfd006db	-1.6252092
105	0xbe994d86	-0.29941958
106	0xbf18e7b2	-0.5972854
107	0x3f3024cc	0.6880615
108	0x3ce1d7cf	0.027568726
109	0xbf505441	-0.8137856
110	0xbfa9a0a4	-1.3252149
111	0x3eb8252a	0.35965854
112	0xbf322a47	-0.6959576
113	0x3f650051	0.8945361
114	0x3e79966d	0.24373789
115	0x3e9ba077	0.30395862
116	0x3f0655d8	0.5247474
117	0x3ee80973	0.4531971
118	0x3e672d94	0.2257598
119	0xbf34654f	-0.70467085

rnn_as_level.weight_hh_l0 f4 [8, 8]
0	0x3ee2b7f5	0.44280973
1	0xbe072975	-0.13199408
2	0xbde3a8a6	-0.111161515
3	0x3c192a40	0.009348452
4	0x3f05770c	0.52134776
5	0x3e0f0775	0.13967688
6	0x3f4f630f	0.81010526
7	0x3f24ffd7	0.6445288
8	0x3e95d327	0.2926266
9	0x3e45b7f8	0.1930846
10	0x3f29ecff	0.6637725
11	0xbc604eff	-0.013690709
12	0x3f4687bb	0.7755086
13	0x3f219f8f	0.6313409
14	0x3cce5df2	0.025191281
15	0x3e17bb94	0.14817649
16	0xbc4a4e89	-0.012347826
17	0xbcc5fcb4	-0.02416835
18	0xbe19768d	-0.1498663
19	0x3d8b2158	0.06793469
20	0xbec3e974	-0.38264048
21	0x3f3d6059	0.7397514
22	0x3e860e70	0.2618289
23	0xbed7bfb3	-0.42138442
24	0x3f8778c6	1.0583732
25	0xbe91650e	-0.2839741
26	0x3e868a2f	0.262773
27	0xbd5667d2	-0.052345105
28	0x3ed2a804	0.4114381
29	0x3da109b7	0.07863181
30	0xbc9eaec3	-0.019370442
31	0x3e5d3621	0.2160268
32	0x3ea9f872	0.3319736
33	0xbe5df29c	-0.2167458
34	0xbb88e6d8	-0.0041779093
35	0x3e6fd705	0.23421867
36	0x3df2fc0f	0.118644826
37	0x3e49d452	0.197099
38	0xbe5e230c	-0.21693057
39	0x3f3e0f5c	0.74242187
40	0xbec1c800	-0.378479
41	0x3e97768a	0.29582626
42	0xbf0a8b10	-0.5411844
43	0x3ea82205	0.32838455
44	0x3ccaea4d	0.024769926
45	0xbe055400	-0.13020325
46	0xbc0c3b5d	-0.008559075
47	0xbe4ba82b	-0.1988837
48	0x3fdb2cc9	1.7123042
49	0xbec05b70	-0.3756976
50	0x3edb1600	0.42790222
51	0x3f2b3067	0.6687073
52	0xbd8ebcde	-0.06969617
53	0x3f2eeb63	0.6832792
54	0xbc9e72ee	-0.019341912
55	0xbd4666ca	-0.04843787
56	0x3e8635a4	0.262128
57	0x3f657c56	0.89642847
58	0xbe145e35	-0.14489062
59	0x3e7a1f99	0.24426116
60	0xbe43f093	-0.1913474
61	0x3f1cb590	0.6121454
62	0x3e662bb0	0.22477603
63	0x3d1da918	0.03849134

rnn_as_level.bias_ih_l0 f4 [8]
0	0xbf0b3cc5	-0.543896
1	0xbdc3f51a	-0.09568234
2	0xbf0b4ff9	-0.54418904
3	0x3d8a5671	0.06754769
4	0x3e965bb1	0.2936683
5	0xbe4851c2	-0.19562438
6	0xbddac227	-0.10681563
7	0xbeb977b8	-0.3622415

rnn_as_level.bias_hh_l0 f4 [8]
0	0xbf3f25cb	-0.7466704
1	0x3e3155c9	0.1731788
2	0xbd833f6c	-0.06408581
3	0xbb9cf297	-0.004789661
4	0x3e47111f	0.19440125
5	0x3c3de1ae	0.011589451
6	0xbeb5c6b4	-0.3550316
7	0xbeacbfc4	-0.33740056

rnn_as_level.weight_ih_l1 f4 [8, 8]
0	0xbf1af0a3	-0.6052343
1	0x3f337c74	0.70111775
2	0xbf5aa401	-0.854065
3	0xbf853282	-1.0406039
4	0x3fa539a4	1.2908216
5	0x3e8e78e1	0.27826598
6	0x3ea88589	0.3291438
7	0xbf8619f5	-1.0476671
8	0xbf36cf0f	-0.71409696
9	0xbf3e6bd3	-0.74383277
10	0xbf6fb910	-0.9364176
11	0xbf6583c1	-0.89654166
12	0xbe044826	-0.12918147
13	0xbd488a9d	-0.048960317
14	0xbe5fccf8	-0.21855533
15	0xbf6de1f2	-0.9292289
16	0xbdaa8096	-0.08325307
17	0xbe6b47a0	-0.22976542
18	0x3e033d91	0.12816454
19	0xbdf2061e	-0.11817573
20	0x3f56502e	0.83716094
21	0xbf7ba0f7	-0.9829249
22	0x3f21ebad	0.6325024
23	0x3ec389e9	0.38191155
24	0xbebd9d98	-0.37034297
25	0xbe8c885c	-0.27447784
26	0xbec5106d	-0.38489094
27	0x3f68b382	0.9089891
28	0xbe9a3437	-0.30117962
29	0x3d899020	0.06716943
30	0xbe987fa6	-0.29784888
31	0xbda23d24	-0.07921818
32	0xbefd075a	-0.4941967
33	0x3f09902e	0.53735626
34	0xbe634cef	-0.22197317
35	0x3f3bb905	0.7332919
36	0x3e03d3e9	0.12873806
37	0xbf237a88	-0.6385884
38	0x3e82161e	0.254075
39	0x3f0510b2	0.519786
40	0xbe6f4e01	-0.233696
41	0xbf0cf434	-0.55060124
42	0x3ea6e172	0.32593876
43	0x3e8d68f5	0.27619138
44	0xbe8c1dfd	-0.2736663
45	0x3fa23bd7	1.2674512
46	0xbf4a3730	-0.7899046
47	0x3df91182	0.121615425
48	0xbd2118a7	-0.03933015
49	0x3e5871cb	0.21137159
50	0xbf2f30ac	-0.6843364
51	0x3e13e8f3	0.14444332
52	0xbf90e154	-1.1318765
53	0xbd83a7d1	-0.06428493
54	0x3d91c94c	0.071184725
55	0x3e5a8130	0.21338344
56	0x3f5a0997	0.8517088
57	0x3d31394c	0.043267533
58	0x3e94851c	0.29007804
59	0x3e755b96	0.23960719
60	0x3ec28884	0.37994778
61	0x3d8c1f51	0.06841911
62	0xb999b793	-0.00029319208
63	0xbc0f891f	-0.00876072

rnn_as_level.weight_hh_l1 f4 [8, 8]
0	0x3e69d01f	0.22833298
1	0x3e340cf5	0.17583068
2	0x3cb559e9	0.022137599
3	0x3f5cb3d1	0.8621188
4	0x3eeb9624	0.46012986
5	0x3f13abe1	0.5768414
6	0x3daec60f	0.085338704
7	0xbe6fb565	-0.2340904
8	0x3cdfbdcf	0.027312187
9	0x3e54ede6	0.20793876
10	0x3e844c79	0.25839594
11	0x3f28deac	0.6596477
12	0xbe89f1cf	-0.26942298
13	0xbead05fb	-0.33793625
14	0xbe29867f	-0.16555212
15	0x3e86428f	0.26222655
16	0xbf293c20	-0.6610737
17	0xbdae527f	-0.08511829
18	0xbd65d859	-0.05611453
19	0xbd92f580	-0.07175732
20	0x3f505c51	0.81390864
21	0xbe5ff19a	-0.21869507
22	0xbe0f9b5a	-0.14024106
23	0x3f03b918	0.51454306
24	0xbf18aecb	-0.5964171
25	0xbe1cdb76	-0.15318093
26	0x3f202270	0.6255255
27	0xbf4136fd	-0.7547453
28	0xbdf27eec	-0.11840615
29	0x3ee09913	0.43866786
30	0xbecb9869	-0.39764717
31	0xbd664c70	-0.05622524
32	0x3f21c892	0.6319667
33	0x3e8fd21d	0.2808999
34	0x3f19e184	0.60109735
35	0xbebfbcbc	-0.3744868
36	0xbf5a8bf1	-0.85369784
37	0x3e83b6a5	0.25725284
38	0xbf78d6fc	-0.9720304
39	0xbcf8dcfd	-0.030378813
40	0x3f9ccf9e	1.225086
41	0x3f21774a	0.63072646
42	0x3e41a1cb	0.18909375
43	0x3e43b007	0.19110118
44	0x3e1ef5de	0.15523478
45	0x3d93cd61	0.07216907
46	0x3ea65fab	0.32494864
47	0xbd457786	-0.04820969
48	0xbe1aab22	-0.15104344
49	0xbe6c74dc	-0.23091453
50	0x3e3a88d4	0.18216258
51	0xbea6a377	-0.3254659
52	0xbc87902a	-0.016548235
53	0x3ea003fa	0.31253034
54	0xbe083f85	-0.13305481
55	0xbefc0960	-0.49225903
56	0x3e8ab489	0.27090862
57	0xbf1aba8e	-0.6044091
58	0x3efd6096	0.49487752
59	0x3e8824ab	0.26590475
60	0xbe927095	-0.28601518
61	0xbf5e5be3	-0.8685896
62	0xbf09e7bf	-0.5386924
63	0xbcd24e69	-0.025672155

rnn_as_level.bias_ih_l1 f4 [8]
0	0x3f2fbb49	0.6864515
1	0x3d31b912	0.043389387
2	0x3ccf78e4	0.0253262
3	0x3ea1b3cc	0.31582487
4	0x3cf67ab4	0.030087806
5	0x3ddb2f09	0.107023306
6	0x3e976d8d	0.29575768
7	0x3dd5402c	0.104126304

rnn_as_level.bias_hh_l1 f4 [8]
0	0x3e462e0c	0.19353503
1	0x3eb2324f	0.34804007
2	0xbed704d0	-0.4199586
3	0x3e01c4b2	0.1267269
4	0x3d9ed1d2	0.07754864
5	0xbd589d56	-0.052884422
6	0x3eb55d9a	0.35422975
7	0xbe030e5b	-0.12798445

rnn_as_level.weight_ih_l2 f4 [8, 8]
0	0x3f09b478	0.53791
1	0x3f16c520	0.5889454
2	0xbee44ed9	-0.44591406
3	0x3f1560f7	0.5835108
4	0xbf1fecde	-0.62470806
5	0x3f73abf4	0.95184255
6	0x3debd751	0.11515678
7	0xbe3d8483	-0.1850758
8	0xbd6668b0	-0.05625218
9	0x3ee23777	0.4418294
10	0xbd9ffc05	-0.07811741
11	0x3c1f7025	0.009731327
12	0x3eccb4a1	0.3998156
13	0x3e81b982	0.25336844
14	0x3e8429d0	0.2581315
15	0xbec279da	-0.3798359
16	0x3eecd7c4	0.46258366
17	0xbeafa0df	-0.34302422
18	0x3d3916d5	0.04518779
19	0x3e967e60	0.2939329
20	0xbddedc9b	-0.10881921
21	0xbf9c5a4c	-1.2215056
22	0x3ea4a6e4	0.32158577
23	0xbe4a441f	-0.19752549
24	0xbe8eeffd	-0.27917472
25	0x3efb8c24	0.49130356
26	0xbf2925a8	-0.66073084
27	0xb9ac70f5	-0.00032890556
28	0x3f93627e	1.1514432
29	0x3b337ba8	0.0027386937
30	0x3ec25b3e	0.37960237
31	0xbfb54f80	-1.4164886
32	0x3f407abf	0.75187296
33	0xbe78c8ec	-0.24295396
34	0x3fee008b	1.8593916
35	0x3ea5a8db	0.3235539
36	0xbf1a96e7	-0.6038651
37	0xbfb1becb	-1.388635
38	0xbf13c32a	-0.5771967
39	0x3d6a88e3	0.05725945
40	0xbf23148b	-0.6370322
41	0xbf260c10	-0.64862156
42	0x3e1004a0	0.14064264
43	0xbd28909f	-0.041153546
44	0x3f641c8d	0.89106065
45	0x3d322362	0.043490775
46	0xbde62d13	-0.11239066
47	0xbdd84754	-0.1056048
48	0x3f1cbddc	0.612272
49	0x3e9a89f2	0.3018337
50	0xbefd3c65	-0.4946014
51	0x3e4e00a5	0.20117433
52	0xbeae4b4f	-0.3404183
53	0x3f2eae6f	0.68234915
54	0xbe5e9478	-0.21736324
55	0xbce5109d	-0.027962023
56	0x3cd154b3	0.025553083
57	0xbcb9bbbe	-0.02267253
58	0xbcf4b72b	-0.029872498
59	0xbd5e9396	-0.054339968
60	0xbf03aa42	-0.5143167
61	0xbf015a4b	-0.505284
62	0x3cc85907	0.024456514
63	0xbde3fb74	-0.11131945

rnn_as_level.weight_hh_l2 f4 [8, 8]
0	0x3c9b7d00	0.018980503
1	0x3ebd1dd3	0.36936817
2	0x3e90d387	0.28286383
3	0x3effbd77	0.49949238
4	0xbe5b4ef1	-0.21416833
5	0x3e04d31a	0.12971154
6	0x3e545b0f	0.20737861
7	0xbe37e4df	-0.17958401
8	0x3e1796bb	0.14803593
9	0x3ed323b7	0.41238186
10	0x3e003d53	0.12523393
11	0xbe16955a	-0.1470541
12	0xbeaac5ab	-0.33353934
13	0x3ea64714	0.32476103
14	0x3f5762da	0.8413521
15	0xbe18251a	-0.14857903
16	0xbef6cb4c	-0.48201978
17	0x3e36fb40	0.17869282
18	0xbdb1a2e4	-0.08673647
19	0x3dea0aeb	0.11427864
20	0x3ddac860	0.1068275
21	0x3f40d94a	0.75331557
22	0xbd55108d	-0.052017737
23	0x3db3dd15	0.087824024
24	0x3f0748c4	0.52845407
25	0x3edac57c	0.42728794
26	0xbf2914f4	-0.66047597
27	0x3f570380	0.83989716
28	0xbf4dbd7a	-0.80367243
29	0x3f48f71d	0.78502065
30	0x3e91bbf8	0.2846372
31	0x3e310a72	0.17289141
32	0xbeaf16f2	-0.34197193
33	0xbf483004	-0.78198266
34	0xbf499975	-0.7874978
35	0xbd36658b	-0.044530433
36	0xbe058a7a	-0.13041106
37	0x3bca3d09	0.0061718267
38	0xbf387d0a	-0.72065794
39	0xbdfada9b	-0.12248727
40	0x3dbda4d7	0.09259956
41	0xbf33e0bd	-0.702648
42	0xbeb97b70	-0.36226988
43	0xbe482f6f	-0.19549344
44	0x3f1e5303	0.61845416
45	0x3cc4a6f7	0.024005396
46	0xbc116fcc	-0.008876752
47	0xbee0abee	-0.43881172
48	0x3f2f856c	0.6856296
49	0x3d2e0253	0.042482685
50	0xbe8735ad	-0.2640814
51	0x3e96d8be	0.29462236
52	0xbcc8b3ca	-0.024499793
53	0x3d9ad487	0.075600676
54	0x3dbaa74c	0.091139406
55	0xbea5ee86	-0.3240854
56	0xbe8994d7	-0.26871368
57	0x3e8049be	0.2505626
58	0x3ecf2a4f	0.40461966
59	0xbe08df7f	-0.13366507
60	0xbe966bd4	-0.2937914
61	0x3e269b92	0.16270283
62	0x3e94209d	0.28931132
63	0xbe46c906	-0.19412622

rnn_as_level.bias_ih_l2 f4 [8]
0	0x3e5227b5	0.2052296
1	0x3ed5bded	0.41746464
2	0xbdf539d0	-0.119739175
3	0x3e3adad9	0.18247546
4	0xbf04faf3	-0.5194542
5	0x3e5a58f6	0.21322998
6	0x3e2e7215	0.17035706
7	0x3d75568f	0.059897

rnn_as_level.bias_hh_l2 f4 [8]
0	0x3f1d41e8	0.6142869
1	0x3e6a14f3	0.22859554
2	0xbe364045	-0.17797954
3	0x3e57d853	0.21078615
4	0xbe815a82	-0.25264364
5	0xbe65ce21	-0.22441913
6	0x3dfd4d28	0.12368232
7	0x3e8fb6e3	0.2806922

rnn_as_level.weight_ih_l3 f4 [8, 8]
0	0xbe11bf0d	-0.14233036
1	0x3eb6cb24	0.3570186
2	0x3e79d92f	0.24399255
3	0x3f0e8791	0.5567561
4	0xbf44f56f	-0.76937
5	0xbe0cbf9c	-0.13744968
6	0x3e8ae0c9	0.27124622
7	0xbeab80be	-0.3349666
8	0x3ecc8311	0.39943746
9	0x3d901dfb	0.07036968
10	0x3e6d303d	0.23162933
11	0x3f163350	0.58672047
12	0xbd0f524d	-0.034990598
13	0xbf3e0706	-0.74229467
14	0x3cce80db	0.025207927
15	0xbc46cb19	-0.012133383
16	0x3e36bea0	0.17846155
17	0xbf10a614	-0.56503415
18	0x3dcd331c	0.10019514
19	0xbeb4d3de	-0.35317892
20	0xbe3672e1	-0.1781726
21	0xbedbe41f	-0.4294748
22	0xbdfad04a	-0.12246759
23	0x3ee69e9b	0.4504288
24	0xbf5ecac0	-0.8702812
25	0xbecfd162	-0.40589434
26	0x3f7558b4	0.95838475
27	0xbe25428e	-0.1613867
28	0x3f94979d	1.1608769
29	0x3ddc38d8	0.107530296
30	0x3e24e35e	0.16102359
31	0x3e86323c	0.262102
32	0xbe7d94b2	-0.24763754
33	0xbebbcc35	-0.36679235
34	0x3f4a7944	0.79091287
35	0x3d87ed84	0.066370994
36	0x40368ef7	2.852476
37	0xbe578369	-0.21046223
38	0x3df709f7	0.120624475
39	0x3f0d7ab2	0.55265343
40	0x3f2d71c4	0.6775172
41	0x3e68ed39	0.22746743
42	0xbe4be72e	-0.19912407
43	0x3f129fa9	0.5727487
44	0x3e6ea029	0.23303284
45	0x3d970cfd	0.07375524
46	0x3c07fdac	0.008300226
47	0xbed2cbe5	-0.41171184
48	0xbf8f6394	-1.1202264
49	0xbe265974	-0.16245061
50	0x3f060497	0.52350754
51	0xbecc9332	-0.3995605
52	0x3eabd1ea	0.3355859
53	0x3dac9dd6	0.08428542
54	0xbec28cbd	-0.37998
55	0xbe15f14e	-0.14642832
56	0xbedd3643	-0.4320546
57	0xbd35578a	-0.044272937
58	0xbdd5d47e	-0.1044092
59	0xbe96dec9	-0.29466847
60	0x3e5b99c5	0.21445377
61	0xbec1fa4b	-0.3788627
62	0xbf2f2a7d	-0.68424207
63	0x3e8db710	0.27678728

rnn_as_level.weight_hh_l3 f4 [8, 8]
0	0xbd41d8f1	-0.047326032
1	0x3a21a344	0.0006165991
2	0xbdd1eb1b	-0.10249921
3	0xbeb88c3e	-0.36044496
4	0xbd73e3e4	-0.059543505
5	0x3e8c8984	0.27448666
6	0xbefefcfb	-0.49802384
7	0xbef0a513	-0.47000942
8	0x3e1b3803	0.15158086
9	0xbf1d5774	-0.6146157
10	0xbf138b4b	-0.5763442
11	0xbf3750ea	-0.7160784
12	0xbf8f867d	-1.1212918
13	0x3d1c94a3	0.03822769
14	0xbddb43fc	-0.10706326
15	0x3b1eb2f9	0.0024215563
16	0xbe1ed15d	-0.15509553
17	0xbea7f25b	-0.3280209
18	0xbe6fd102	-0.23419574
19	0xbe8c0fc2	-0.27355772
20	0x3f25758c	0.6463249
21	0xbeefe12a	-0.46851474
22	0x3f400086	0.750008
23	0x3f6b5c07	0.919373
24	0xbe2c574b	-0.16830175
25	0xbf004e13	-0.5011913
26	0x3ef9bc1a	0.48776323
27	0xbeb0aa0b	-0.34504732
28	0xbece8cb0	-0.4034171
29	0x3e6f889f	0.2339196
30	0x3d97829f	0.07397961
31	0x3ed728fb	0.42023453
32	0xbd040af8	-0.032237023
33	0x3e854c69	0.2603486
34	0x3e9a1853	0.30096683
35	0xbd136167	-0.035981562
36	0xbe8bf776	-0.27337235
37	0xbea99189	-0.33118847
38	0xbe8d83bd	-0.2763957
39	0x3eb8251b	0.3596581
40	0x3ed53f4c	0.41649854
41	0xbe0fdd2f	-0.14049219
42	0xbf956a94	-1.167315
43	0x3e2c42a2	0.16822293
44	0x3eb10463	0.3457366
45	0x3ecc139e	0.39858717
46	0x3dcc1e1f	0.09966683
47	0xbe97263b	-0.29521355
48	0xbe96f99e	-0.29487318
49	0xbe497575	-0.19673713
50	0x3f00be52	0.50290406
51	0xbe3724ea	-0.17885175
52	0x3e8c3392	0.27383095
53	0xbf0531b9	-0.52028996
54	0x3d819cad	0.06328712
55	0x3ed0a953	0.40754184
56	0x3e3b724a	0.18305317
57	0x3cb45f9e	0.02201825
58	0xbabe89fa	-0.001453697
59	0x3d9280e0	0.07153487
60	0xbdea5961	-0.11442829
61	0xbeb9b1ec	-0.36268556
62	0x3efc08fd	0.49225608
63	0xbe209b97	-0.15684353

rnn_as_level.bias_ih_l3 f4 [8]
0	0xbb6cc741	-0.0036129507
1	0x3eac85f7	0.33695957
2	0x3e01f301	0.12690355
3	0xbeada78b	-0.33916888
4	0xbf03510f	-0.5129556
5	0x3dd6b852	0.10484375
6	0xbe866c50	-0.2625451
7	0xbf092196	-0.53566873

rnn_as_level.bias_hh_l3 f4 [8]
0	0xbdd3937a	-0.10330863
1	0x3eedff0e	0.46483654
2	0xbef6c9c7	-0.4820082
3	0xbf2a66ff	-0.6656341
4	0xbe81a1ac	-0.25318658
5	0x3edc7385	0.43056884
6	0xbef50764	-0.478572
7	0xbf3e4142	-0.74318326

rnn_as_level.weight_ih_l4 f4 [8, 8]
0	0xbe8822cf	-0.26589057
1	0x3e914ed3	0.2838045
2	0x3f27332a	0.65312445
3	0x3e18a481	0.14906503
4	0x3ea8886d	0.32916585
5	0xbf1b5d96	-0.60689676
6	0x3e7a6b89	0.24455084
7	0xbe5be308	-0.21473324
8	0xbf012dbf	-0.5046043
9	0x3f0c8597	0.5489134
10	0x3ea5419f	0.32276627
11	0xbebbcab8	-0.366781
12	0x3e77aefb	0.24187844
13	0xbf033d84	-0.5126574
14	0x3f0a4fde	0.5402812
15	0x3e6fe850	0.23428464
16	0xbe3f038a	-0.18653694
17	0x3f22c594	0.6358273
18	0x3f454f12	0.77073777
19	0xbf02f5e4	-0.5115645
20	0x3df66606	0.12031178
21	0x3e1c244d	0.15248223
22	0xbd06f234	-0.032945827
23	0x3d4c8158	0.04992804
24	0x3f10d584	0.565758
25	0x3f965865	1.1745726
26	0xbef33b0b	-0.47505984
27	0x3eedfdfe	0.46482843
28	0xbed38e20	-0.4131937
29	0x3f03bed6	0.5146307
30	0x3e0d3513	0.13789777
31	0xbedb6de4	-0.42857277
32	0xbecdf449	-0.40225437
33	0xbe2fe2a8	-0.17176306
34	0x3e9c38f6	0.30512208
35	0x3f6ff27f	0.93729395
36	0x3ea06dd7	0.313338
37	0xbcbb0984	-0.022831686
38	0x3d8cd7c2	0.0687709
39	0xbf137881	-0.5760575
40	0x3f080cda	0.5314461
41	0x3e1e3b38	0.15452278
42	0xbf21af79	-0.63158375
43	0x3ca63e3f	0.020293353
44	0xbecbedbb	-0.3982981
45	0x3f100fbe	0.5627402
46	0xbe525fb0	-0.20544314
47	0x3e069872	0.13144091
48	0xbdbd068c	-0.09229764
49	0xbe8a3387	-0.26992437
50	0x3e4c5512	0.19954327
51	0x3f4e80a6	0.8066505
52	0xbf31122d	-0.6916836
53	0xbf22b164	-0.63551927
54	0x3f7827bc	0.9693563
55	0x3e80fee3	0.25194463
56	0xbf2230b5	-0.6335557
57	0xbddeb82e	-0.10874973
58	0x3e2108d9	0.15726031
59	0xbf0b728c	-0.5447166
60	0x3ea72d35	0.32651678
61	0xbe96c92e	-0.29450363
62	0x3f01bfdf	0.506834
63	0x3e9e0aba	0.3086756

rnn_as_level.weight_hh_l4 f4 [8, 8]
0	0xbec5b6be	-0.38615984
1	0xbd86fbf1	-0.06591023
2	0x3e81e0fe	0.25366968
3	0xbebbd47b	-0.36685547
4	0xbee9a2d8	-0.45632052
5	0xbe3135bd	-0.17305656
6	0xbccc4d17	-0.024939103
7	0x3f7703bf	0.9649009
8	0x3ec48402	0.38381964
9	0x3e6b5dc7	0.22984992
10	0x3eb626ca	0.3557647
11	0xbe7003b4	-0.23438913
12	0xbe333bdc	-0.17503303
13	0xbf0fb42f	-0.56134313
14	0x3e6f4dbf	0.23369502
15	0x3eb84433	0.35989532
16	0xbeb81f52	-0.35961396
17	0x3f155a5c	0.58341
18	0xbe9071b9	-0.28211764
19	0x3df15e56	0.11785571
20	0xbedec07d	-0.43506232
21	0xbb80ed08	-0.0039345063
22	0x3d339ffa	0.043853737
23	0x3f170d05	0.5900424
24	0xbe3515ab	-0.17684047
25	0xbe7b209e	-0.24524161
26	0xbe1bd4c1	-0.15217878
27	0xbf06dc0d	-0.5267952
28	0xbedb35a9	-0.42814377
29	0x3f042f39	0.51634556
30	0x3d88bf84	0.06677154
31	0xbecf6724	-0.40508378
32	0xbf1bd601	-0.6087342
33	0xbe644739	-0.22292794
34	0x3d602605	0.05472376
35	0xbd3eb4af	-0.046559032
36	0xbeb91963	-0.3615218
37	0x3c6cfa98	0.014464043
38	0xbf062f37	-0.52415794
39	0xbf95b3ee	-1.1695535
40	0xbdfcec7c	-0.12349793
41	0xbd5a5a1c	-0.05330859
42	0xbf5a0847	-0.8516888
43	0xbf236f1e	-0.63841426
44	0x3e34b797	0.17648159
45	0xbe695679	-0.22786893
46	0x3ee20b4a	0.44149238
47	0xbdd17d8a	-0.10229023
48	0xbc9114aa	-0.017710049
49	0x3ca22fe3	0.019798225
50	0x3e83b719	0.2572563
51	0xbf586f8b	-0.845452
52	0xbdf5018b	-0.11963185
53	0xbf07f4a7	-0.53107685
54	0x3ea7af33	0.32750854
55	0x3f582f59	0.84447247
56	0x3eaf1878	0.34198356
57	0x3e1cbd26	0.1530653
58	0x3f0a10d4	0.5393193
59	0x3f06c244	0.52640176
60	0x3f2ee52e	0.6831845
61	0xbf07f082	-0.5310136
62	0xbcd4bb7a	-0.025968302
63	0xbdc6f74e	-0.097151384

rnn_as_level.bias_ih_l4 f4 [8]
0	0xbdbfd3cc	-0.09366569
1	0xbf3e0f7f	-0.74242395
2	0xbeb0e186	-0.3454706
3	0x3f44ac09	0.76825005
4	0x3d3315b8	0.043721884
5	0x3e44787b	0.19186585
6	0xbef9e9b1	-0.48811105
7	0xbeef6888	-0.4675944

rnn_as_level.bias_hh_l4 f4 [8]
0	0xbe89dfb3	-0.2692848
1	0xbf0e1078	-0.5549388
2	0xbea90453	-0.33011112
3	0x3f1cfa2c	0.6131923
4	0x3e815884	0.25262845
5	0x3ec6481a	0.38726884
6	0xbf4bd58d	-0.7962273
7	0xbeef6f1e	-0.46764463

rnn_as_level.weight_ih_l5 f4 [8, 8]
0	0xbec740bd	-0.3891658
1	0xbea858bb	-0.32880196
2	0xbf237486	-0.63849676
3	0xbebc9ef1	-0.36840013
4	0x3da79777	0.081831865
5	0x3e240c07	0.16020213
6	0xbdc26ee6	-0.094938084
7	0xbec60bf2	-0.3868099
8	0xbdb6fb39	-0.08934636
9	0x3f4b7275	0.7947152
10	0xbdbcf40f	-0.09226238
11	0xbf4dbb11	-0.80363566
12	0x3f037b30	0.51359844
13	0xbe87ab7f	-0.2649803
14	0x3d0eea2c	0.034891292
15	0x3ed3d753	0.41375217
16	0x3e971d45	0.29514518
17	0x3f03d7a0	0.5150089
18	0x3d3d51bb	0.046220522
19	0xbd4955af	-0.04915398
20	0x3ef554f5	0.4791638
21	0xbefe0d44	-0.49619496
22	0x3f89c252	1.0762427
23	0x3d235ede	0.039885394
24	0x3df20916	0.11818139
25	0x3ef8c3ac	0.48586786
26	0x3f3990c7	0.7248654
27	0x3e78cae4	0.24296147
28	0x3d5518d4	0.05202563
29	0x3d9cf744	0.0766435
30	0xbecf7504	-0.40518963
31	0xbbfac49c	-0.007652832
32	0x3c7ab512	0.01530196
33	0x3ed1469f	0.40874192
34	0x3dca70f1	0.09884823
35	0xbe8eeb4a	-0.27913886
36	0x3e170d35	0.14751132
37	0xbf013cfc	-0.5048368
38	0xbe2e5836	-0.17025837
39	0x3f2ed927	0.683001
40	0xbe95b56d	-0.2923998
41	0x3e6fe1b6	0.23425946
42	0x3da6dede	0.08147977
43	0xbdb33995	-0.08751217
44	0xbf121048	-0.57056093
45	0x3ef08b3d	0.4698123
46	0x3d942d95	0.072352566
47	0xbf00867d	-0.5020521
48	0xbe5d021c	-0.21582836
49	0xbedb789a	-0.4286545
50	0xbeb74de5	-0.35801616
51	0x3d90aa64	0.070637494
52	0xbe8feec4	-0.2811185
53	0x3f22f882	0.6366044
54	0xbe4f81ab	-0.20264308
55	0x3e249882	0.16073802
56	0x3e9008a3	0.2813159
57	0x3ede38ae	0.43402618
58	0xbd8b0d95	-0.067897
59	0x3d763b39	0.060115073
60	0x3cc844a5	0.024446795
61	0xbde08582	-0.109629646
62	0x3e4fd555	0.20296223
63	0x3ef55b1c	0.47921073

rnn_as_level.weight_hh_l5 f4 [8, 8]
0	0x3df706fa	0.120618775
1	0xbf65dd47	-0.8979077
2	0xbee89cd6	-0.45432156
3	0xbe41fb4e	-0.18943521
4	0x3db575fc	0.08860394
5	0x3dececf3	0.11568632
6	0x3e6e4e0b	0.23271959
7	0xbf85ce05	-1.0453497
8	0xbe7be555	-0.24599202
9	0xbe8ed7f6	-0.2789914
10	0x3e6bba38	0.23020256
11	0x3f28302e	0.65698516
12	0x3e7981aa	0.24365869
13	0xbef6bf1f	-0.4819269
14	0xbf25e35a	-0.64800036
15	0xbe8121a7	-0.25220987
16	0x3dfb9a6e	0.122853145
17	0x3e058754	0.13039905
18	0xbf17ab96	-0.59246194
19	0x3e87380b	0.26409945
20	0x3e3bab06	0.18326959
21	0x3e212a15	0.1573871
22	0x3e94cb75	0.29061475
23	0x3f29b602	0.66293347
24	0xbef5b47a	-0.47989255
25	0x3e814280	0.25246048
26	0xbe917425	-0.28408924
27	0x3e6e7669	0.23287357
28	0xbe5a785b	-0.21334974
29	0xbd33be97	-0.043882933
30	0xbcacbff7	-0.02108763
31	0x3ee4e704	0.447075
32	0x3d35fadb	0.044428688
33	0x3ea28b03	0.31746683
34	0x3f0f74f1	0.56037813
35	0x3f3ee46d	0.745673
36	0xbdb2f289	-0.08737666
37	0xbe391a95	-0.18076546
38	0xbea2e63b	-0.31816277
39	0x3ea5d215	0.32386842
40	0x3eb8e4a0	0.36111927
41	0x3e4ac216	0.198006
42	0x3e8d48ab	0.27594504
43	0xbe86536f	-0.2623553
44	0xbef0a33d	-0.4699954
45	0x3e3ee6db	0.18642752
46	0x3e652823	0.22378592
47	0xbe6bf6b4	-0.23043329
48	0x3ea2f51e	0.31827635
49	0x3df5f917	0.12010401
50	0xbdf16df7	-0.11788552
51	0xbeb9c4f2	-0.3628307
52	0xbdb1b782	-0.086775795
53	0xbd8b89c2	-0.068133846
54	0xbec6d168	-0.3883164
55	0x3e0f1704	0.13973624
56	0xbdafacf5	-0.08577911
57	0x3ea6f2b2	0.32607037
58	0xbec99857	-0.3937404
59	0x3db78317	0.0896055
60	0x3d98be52	0.07458176
61	0xbf2493fc	-0.64288306
62	0xbe69bf6e	-0.22826931
63	0xbe88f562	-0.26749712

rnn_as_level.bias_ih_l5 f4 [8]
0	0x3edeba44	0.43501484
1	0xbf1feb98	-0.6246886
2	0xbe083de6	-0.13304862
3	0x3d47dd7e	0.048795216
4	0xbd923c95	-0.07140461
5	0x3f59696d	0.8492649
6	0x3edf7c3c	0.4364947
7	0xbc93aadf	-0.018025814

rnn_as_level.bias_hh_l5 f4 [8]
0	0x3ed4f1a4	0.41590607
1	0xbf638f8e	-0.8889092
2	0xbf0d2d05	-0.5514682
3	0xbeef8337	-0.46779796
4	0xbed073d0	-0.40713358
5	0x3f3fc216	0.74905527
6	0x3ed4fc93	0.4159895
7	0xbc4a8c44	-0.0123625435

rnn_as_level.weight_ih_l6 f4 [8, 8]
0	0x3d8d2b49	0.068930216
1	0x3d195ba1	0.0374409
2	0xbf020d21	-0.50801283
3	0xbe237cf9	-0.15965642
4	0xbd0bf405	-0.034168262
5	0xbf110415	-0.56646854
6	0xbe8ffece	-0.28124088
7	0xbe8642bb	-0.26222786
8	0xbd66fb95	-0.05639227
9	0x3eb8f4dd	0.36124316
10	0x3cf1661b	0.029467633
11	0x3c79d3af	0.015248223
12	0x3e3651ac	0.17804593
13	0xbded7f0b	-0.11596497
14	0x3e52fdfa	0.20604697
15	0x3e49f37d	0.1972179
16	0xbeb9185c	-0.36151397
17	0xbeffc52c	-0.49955118
18	0xbf58c5ed	-0.8467701
19	0x3d063096	0.03276118
20	0xbe96a359	-0.294215
21	0xbd664f7a	-0.05622814
22	0x3c168e6b	0.0091892285
23	0xbe9f337b	-0.31093964
24	0x3f0de932	0.5543395
25	0xbf283f76	-0.65721834
26	0xbeebcbfd	-0.46054068
27	0xbf20bfda	-0.6279274
28	0xbf20707b	-0.6267163
29	0x3f12f3b2	0.574031
30	0x3edd3bdc	0.43209732
31	0xbe01dab7	-0.1268109
32	0xbda29d4b	-0.079401575
33	0x3db33921	0.08751131
34	0x3de6c6e5	0.11268405
35	0x3de694b2	0.1125883
36	0xbe157f38	-0.14599311
37	0xbeabe063	-0.3356963
38	0xbe69b47e	-0.22822759
39	0xbe0225b0	-0.12709689
40	0xbec7fa4d	-0.39058152
41	0xbe9899a6	-0.29804724
42	0xbe1d82f0	-0.1538198
43	0x3e1630d8	0.1466707
44	0xbc0904cd	-0.008362961
45	0x3e6c9714	0.23104507
46	0x3eddd118	0.43323588
47	0xbec2c95b	-0.38044247
48	0xbe2be506	-0.16786584
49	0x3eea14d3	0.45719013
50	0x3e968122	0.29395396
51	0x3d37efcd	0.044906426
52	0x3ed1f1cd	0.41004792
53	0xbf0ff777	-0.56236976
54	0xbecfaa07	-0.40559408
55	0x3f59c120	0.8506031
56	0x3dffe701	0.124952324
57	0xbc7930c7	-0.015209383
58	0x3f040b30	0.5157957
59	0x3d9400bd	0.07226703
60	0xbec834f8	-0.39102912
61	0x3cfadb97	0.030622287
62	0xbd34103a	-0.043960787
63	0x3eb01b84	0.34395993

rnn_as_level.weight_hh_l6 f4 [8, 8]
0	0x3da98796	0.08277814
1	0xbda810d9	-0.082063384
2	0x3ed8e847	0.42364714
3	0xbe06f667	-0.13179933
4	0xbeb53799	-0.3539398
5	0x3eac7e07	0.336899
6	0x3e20b10e	0.15692541
7	0xbed7af6e	-0.4212603
8	0x3e29732c	0.16547841
9	0x3d85eeda	0.06539698
10	0xbe278851	-0.16360594
11	0xbe179a7c	-0.14805025
12	0xbc89c0a8	-0.016815498
13	0x3e37b90f	0.17941688
14	0x3df46bea	0.119346455
15	0x3e25576d	0.16146632
16	0xbec66e8a	-0.3875621
17	0x3adfc0fa	0.0017071061
18	0xbf353047	-0.7077679
19	0x3e296234	0.16541368
20	0xbe9498b0	-0.2902274
21	0x3e51f264	0.20502621
22	0x3f2349f1	0.637847
23	0x3ebd7a87	0.37007543
24	0xbd70f979	-0.058831666
25	0xbf40a04d	-0.752446
26	0xbf1cdc26	-0.6127342
27	0xbc8949b9	-0.016758787
28	0x3ed81794	0.4220549
29	0xbf166c29	-0.5875879
30	0xbe9f5521	-0.31119636
31	0xbeb90ba9	-0.36141708
32	0xbcb18bd3	-0.021673119
33	0xbebe26f7	-0.37139103
34	0x3eabadea	0.33531123
35	0x3ecedef7	0.40404484
36	0xbdf472cf	-0.119359605
37	0x3cc4598a	0.023968477
38	0xbd2b95ae	-0.041890793
39	0xbe9729b9	-0.2952402
40	0xbe4e259c	-0.20131534
41	0xbea34c04	-0.31893933
42	0xbf487093	-0.78296775
43	0xbe10abe0	-0.14128065
44	0xbe9e9d5b	-0.30979428
45	0xbf286768	-0.65782785
46	0x3d7a280b	0.061073344
47	0x3e838ed0	0.25694895
48	0x3ee6d918	0.45087504
49	0x3e723715	0.23653825
50	0xbe355821	-0.177094
51	0xbe89aca9	-0.26889542
52	0x3e9795a3	0.2960635
53	0xbe6edcdf	-0.23326443
54	0x3e8e7f82	0.27831656
55	0x3f1a0ccf	0.60175794
56	0x3ec96990	0.3933835
57	0xbe393dd8	-0.18089998
58	0xbf15f6fb	-0.5857999
59	0x3e43e8c1	0.19131757
60	0x3e26d964	0.16293865
61	0xbd56bd96	-0.052426897
62	0xbe83f580	-0.2577324
63	0xbcc74eea	-0.024329621

rnn_as_level.bias_ih_l6 f4 [8]
0	0xbe9b3144	-0.30311024
1	0xbee142c1	-0.43996242
2	0x3d8d4d80	0.068995476
3	0x3ef7e4ba	0.48416692
4	0x3e8ecc1b	0.27890095
5	0xbdded2ba	-0.10880037
6	0xbe4d4012	-0.20043972
7	0xbed82745	-0.4221746

rnn_as_level.bias_hh_l6 f4 [8]
0	0xbedd3d6d	-0.43210927
1	0xbe5d5471	-0.21614243
2	0x3e836848	0.25665498
3	0x3d4ee3ab	0.05051009
4	0x3e08ffc4	0.13378817
5	0xbe144ec1	-0.14483167
6	0xbf05d273	-0.52274245
7	0x3d7add00	0.06124592

rnn_as_level.weight_ih_l7 f4 [8, 8]
0	0xbd15bcc9	-0.036556993
1	0xbeba24db	-0.36356243
2	0x3daa90cf	0.08328401
3	0x3dd5a748	0.10432297
4	0x3e967bab	0.29391226
5	0x3e3774d6	0.17915663
6	0x3dd1f404	0.102516204
7	0x3cb508ee	0.022098985
8	0xbef4a4a7	-0.4778187
9	0xbd8020b3	-0.06256237
10	0xbecdedac	-0.40220392
11	0x3ee4d008	0.44689965
12	0xbe3a2fb9	-0.18182267
13	0xbe89083d	-0.26764098
14	0xbf0e9b06	-0.55705297
15	0x3d94cc25	0.072655
16	0x3e0a7401	0.13520814
17	0xbeed7a0d	-0.4638218
18	0xbddc6b24	-0.10762623
19	0x3f02cbfb	0.510925
20	0x3f06b16a	0.5261446
21	0xbd414081	-0.047180656
22	0xbeea9e7a	-0.45824033
23	0xbe8886a6	-0.2666523
24	0xbe388c1e	-0.180222
25	0x3d75af7c	0.059981808
26	0x3e8d2d9e	0.27573866
27	0x3eb6dfa7	0.35717508
28	0x3e3ea0ed	0.18616076
29	0x3f1b1c25	0.6058982
30	0xbefa96b3	-0.489431
31	0xbe65ddcf	-0.22447895
32	0x3ede381f	0.43402192
33	0x3e20c9ff	0.15702055
34	0xbe1d4441	-0.15358068
35	0xbe7857ee	-0.24252293
36	0x3e2bbd7f	0.16771506
37	0xbd7d2be3	-0.06180943
38	0x3e26da69	0.16294254
39	0x3990fe39	0.0002765523
40	0xbe026101	-0.12732317
41	0xbcd4cd60	-0.025976837
42	0x3e46266e	0.19350597
43	0x3eb2cee2	0.34923464
44	0xbd83a1e7	-0.06427365
45	0xbe9100c6	-0.28320903
46	0x3cba0522	0.022707526
47	0x3d8c8c9b	0.06862756
48	0xbf081d6e	-0.53169906
49	0x3ebfa4a9	0.37430313
50	0x3ea76758	0.32696033
51	0xbdffe6d7	-0.12495201
52	0xbe9250dc	-0.28577316
53	0x3e3e8e3c	0.18608946
54	0x3e1ff69a	0.15621415
55	0xbdb02fd6	-0.08602874
56	0xbe6aa43f	-0.22914217
57	0x3dfd717d	0.12375162
58	0xbe5c1750	-0.21493268
59	0x3b6e0dab	0.0036324065
60	0x3e4cd2f9	0.20002355
61	0xbce0d27a	-0.027444113
62	0xbca3fed6	-0.020018976
63	0x3e8cdb7c	0.27511203

rnn_as_level.weight_hh_l7 f4 [8, 8]
0	0xbf19c092	-0.60059464
1	0xbebdcb9b	-0.370694
2	0x3ec527cf	0.38506934
3	0x3d040f2f	0.032241043
4	0x3e57c843	0.21072488
5	0xbe8e8f15	-0.27843538
6	0xbeac9199	-0.33704832
7	0xbe6d62d2	-0.23182228
8	0x3de755c0	0.112956524
9	0xbf686dba	-0.9079243
10	0xbde53ab0	-0.111928344
11	0xbe3bbd30	-0.18333888
12	0x3df2f56f	0.11863219
13	0xbe9b87b3	-0.30376968
14	0x3c21d6ce	0.009877874
15	0xbe2acc5d	-0.16679521
16	0xbf263c41	-0.6493569
17	0x3d371a4e	0.04470282
18	0xbdb7f15c	-0.089815825
19	0x3e5f7fa0	0.21826029
20	0xbf02627f	-0.50931543
21	0xbe9c3742	-0.30510908
22	0x3f614a34	0.8800385
23	0xbb6e139a	-0.0036327601
24	0xbdc01f97	-0.09381025
25	0xbec1944b	-0.3780845
26	0x3dea70b7	0.1144728
27	0xbf6b2974	-0.9186013
28	0x3f2015af	0.62533087
29	0xbf0ddd7d	-0.5541609
30	0x3d4dd379	0.050250504
31	0x3cad0214	0.021119155
32	0xbdbcfde5	-0.09228114
33	0xbe1183ef	-0.14210485
34	0xbd915c37	-0.07097667
35	0x3e2e1b01	0.17002489
36	0xbf1bf09a	-0.60914004
37	0x3e3f4f7a	0.18682662
38	0xbea0f71a	-0.31438524
39	0x3e538b6d	0.20658655
40	0x3e4a642f	0.1976478
41	0x3edbcff1	0.42932084
42	0x3e4c5c9f	0.19957207
43	0x3ed9176c	0.42400682
44	0xbe331f2d	-0.17492361
45	0xbeff5a68	-0.49873662
46	0x3e2f25bd	0.1710424
47	0xbde68435	-0.11255685
48	0x3ea4ae13	0.32164058
49	0xbee509de	-0.4473409
50	0xbf52024e	-0.82034767
51	0xbe6920af	-0.22766374
52	0x3ea7c878	0.32770133
53	0xbf071f9b	-0.527826
54	0xbe500058	-0.20312631
55	0x3d80e770	0.06294143
56	0x3ead6a11	0.33869985
57	0xbd45bc38	-0.048275203
58	0xbe816a2f	-0.25276324
59	0x3e1030da	0.14081135
60	0xbdacca22	-0.08436991
61	0xbed06284	-0.4070016
62	0xbcc6ba30	-0.024258703
63	0xbef4008e	-0.47656673

rnn_as_level.bias_ih_l7 f4 [8]
0	0xbd34d24e	-0.044145875
1	0x3f02a32f	0.5103025
2	0x3e067b96	0.13133082
3	0xbd98b6c0	-0.07456732
4	0x3cc0673f	0.023486732
5	0x3e8072cb	0.2508758
6	0x3e572b40	0.21012592
7	0x3e61e483	0.22059827

rnn_as_level.bias_hh_l7 f4 [8]
0	0xbc064d61	-0.0081971595
1	0xbda4fee0	-0.08056426
2	0x3e7382b0	0.23780322
3	0x3e786a6d	0.24259348
4	0xbb83047e	-0.0039983382
5	0xbc467be1	-0.012114496
6	0xbdbe22d6	-0.09283988
7	0xbcf453de	-0.029825147

rnn_link_level.weight_ih_l0 f4 [8, 6]
0	0xbda91091	-0.08255113
1	0xbeaffc77	-0.34372303
2	0x3e374ab9	0.17899598
3	0xbdb23812	-0.08702101
4	0x3f2f99df	0.68594164
5	0xbf0cb4f5	-0.5496362
6	0xbf085caf	-0.53266424
7	0xbe97c219	-0.29640272
8	0x3e349229	0.1763388
9	0xbe9b61c5	-0.3034803
10	0xbdc191ae	-0.09451614
11	0xbf968983	-1.1760715
12	0xbea0f638	-0.3143785
13	0xba0d5bed	-0.0005392421
14	0xbf1965c6	-0.5992092
15	0x3e5e53f0	0.21711707
16	0xbf3e89f0	-0.74429226
17	0xbfa051a9	-1.2524921
18	0x3f2ac77f	0.66710657
19	0x3e77aaff	0.24186324
20	0xbf212b2d	-0.62956506
21	0x3e8b1248	0.27162385
22	0x4000655f	2.0061872
23	0x3f8cf3a1	1.101185
24	0x3ea9dde2	0.33177096
25	0x3ee32a94	0.44368422
26	0xbd83689b	-0.06416436
27	0xbea34c8e	-0.31894344
28	0x3fbc3ce7	1.4706086
29	0x3f3a430d	0.7275856
30	0xbf0eac81	-0.5573197
31	0x3e3dd5b7	0.18538557
32	0x3e185723	0.1487699
33	0xbef31b86	-0.47481936
34	0xbe9e109c	-0.30872047
35	0xbef54689	-0.47905377
36	0x3eadf21f	0.33973786
37	0x3e3c965a	0.1841673
38	0xbde13f2a	-0.10998376
39	0x3f2ae539	0.66756016
40	0x3f351c3c	0.7074621
41	0x3ffb6f9d	1.9643437
42	0x3e44463d	0.19167419
43	0xbeb2348a	-0.3480571
44	0x3d92700a	0.07150276
45	0xbe43b215	-0.19110902
46	0x3ede427b	0.43410096
47	0x3eb4b7d2	0.35296494

rnn_link_level.weight_hh_l0 f4 [8, 8]
0	0x3e0f7fe7	0.14013635
1	0xbf69db09	-0.91349846
2	0xbe6a5027	-0.22882138
3	0x3f34a9ac	0.705714
4	0x3f1fd9ba	0.624416
5	0xbcde1e7c	-0.027114145
6	0xbddf9e6d	-0.10918889
7	0xbf2da85c	-0.6783502
8	0xbf83aeec	-1.0287757
9	0x3f02fe8d	0.51169664
10	0x3f1eb26a	0.6199099
11	0xbf409ea5	-0.7524207
12	0xbf3ccae6	-0.737471
13	0xbe05dd4b	-0.13072698
14	0xbe0d53e4	-0.13801533
15	0x3dfd8954	0.12379709
16	0x3ec05fb0	0.37573004
17	0x3c77ec35	0.015132
18	0x3f32b997	0.6981444
19	0xbe8e05ed	-0.27738896
20	0x3f29eb58	0.6637473
21	0xbe450be9	-0.19242825
22	0xbf19edd8	-0.60128546
23	0xbf491da6	-0.78560865
24	0x3ea4054b	0.32035288
25	0xbf0185d9	-0.5059486
26	0xbed117de	-0.40838522
27	0x3fa7d864	1.3112912
28	0x3f1aef2a	0.60521185
29	0xbbc87905	-0.0061179423
30	0xbeaf3798	-0.34222102
31	0xbec91440	-0.39273262
32	0xbda4a90c	-0.08040056
33	0xbe848450	-0.25882196
34	0xbe43df12	-0.19128063
35	0xbe8ded30	-0.27720022
36	0x3edc8c03	0.4307557
37	0x3f87997f	1.0593718
38	0x3f0c2088	0.5473714
39	0xbf33085c	-0.6993463
40	0xbf1f72c7	-0.6228451
41	0xbd6265f6	-0.05527302
42	0x3f0fb650	0.5613756
43	0xbe4986b9	-0.19680299
44	0xbec8cfea	-0.39221126
45	0xbdc986c1	-0.098401554
46	0x3f190596	0.5977415
47	0x3f36a681	0.71347815
48	0x3d14ac49	0.036297116
49	0x3f20b71d	0.6277941
50	0x3f81ff23	1.0155987
51	0xbe22db88	-0.15904057
52	0xbed6dc5c	-0.41964996
53	0xbf078c7b	-0.5294873
54	0x3f02bc52	0.51068604
55	0x3f196165	0.5991424
56	0x3f143e52	0.57907593
57	0xbe38f11d	-0.18060727
58	0x3f8f4dd8	1.1195631
59	0x3edd8bea	0.43270808
60	0xbd7eb499	-0.06218395
61	0xbf9933d8	-1.1968946
62	0xbf48ebba	-0.7848469
63	0x3e89e1d1	0.26930097

rnn_link_level.bias_ih_l0 f4 [8]
0	0x3e9f2b82	0.3108788
1	0xbe95ca4c	-0.29255903
2	0xbf236402	-0.63824475
3	0x3f214cc4	0.6300776
4	0x3f065496	0.5247282
5	0x3f2a20e3	0.6645643
6	0x3d224724	0.039618626
7	0xbb977c68	-0.0046229847

rnn_link_level.bias_hh_l0 f4 [8]
0	0xbdb6f1a9	-0.08932812
1	0xbf6df759	-0.9295555
2	0xbf87f96c	-1.0622993
3	0x3e5232b4	0.20527154
4	0x3f0fb75f	0.5613918
5	0x3e5a7c59	0.21336497
6	0x3e7f677a	0.24941817
7	0xbdf73e49	-0.12072427

rnn_link_level.weight_ih_l1 f4 [8, 8]
0	0x3ebdd1d3	0.37074146
1	0x3eb9d918	0.36298442
2	0xbef5d352	-0.48012787
3	0x3f2844d3	0.6573002
4	0x3e612b35	0.21989138
5	0x3c2f1de1	0.010688276
6	0xbf34af18	-0.7057967
7	0xbf15869d	-0.5840853
8	0xbea025fd	-0.31278983
9	0x3ed484e3	0.41507635
10	0xbe519741	-0.20467855
11	0x3eeea27e	0.46608347
12	0xbe70ddca	-0.23522106
13	0xbf072596	-0.52791727
14	0xbf47b244	-0.78006387
15	0x3e94f1ea	0.29090816
16	0xbeb6e5c8	-0.35722184
17	0x3de4742f	0.11154973
18	0xbe3a02af	-0.18165086
19	0xbf498b2b	-0.7872798
20	0xbf10cb3b	-0.56560105
21	0x3f93f50c	1.1559157
22	0x3eed02c5	0.46291175
23	0x3ebd2529	0.36942413
24	0x3ea42f7a	0.32067472
25	0xbe7b10e6	-0.24518165
26	0x3f51b852	0.81921875
27	0x3e76a9b6	0.24088177
28	0x3f432e08	0.76242113
29	0xbdc1236e	-0.09430586
30	0xbe45b7a7	-0.19308339
31	0xbe138fcb	-0.14410321
32	0xbec4a67c	-0.38408267
33	0xbf509acf	-0.8148622
34	0xbf07c9c9	-0.53042275
35	0x3ed55408	0.41665673
36	0x3f1ce2df	0.6128368
37	0x3b73c73b	0.0037197608
38	0xbe62c75b	-0.2214636
39	0xbf2bcf60	-0.67113304
40	0x3d58c946	0.052926324
41	0xbf8e4d97	-1.1117429
42	0x3dfaba7c	0.122426
43	0x3fc5d615	1.5455958
44	0x3ee6edb8	0.4510324
45	0xbdadffd1	-0.08496059
46	0x3f93b903	1.1540836
47	0x3e03fd7f	0.1288967
48	0x3e67e71f	0.2264676
49	0x3f88d923	1.0691265
50	0xbe036926	-0.1283308
51	0xbf0082f4	-0.5019982
52	0xbf174ce6	-0.5910171
53	0x3ef9b67b	0.48772034
54	0xbefcbeb9	-0.4936426
55	0xbe0a8138	-0.13525856
56	0x3ee76404	0.45193493
57	0xbee0ef08	-0.43932366
58	0xbee7b6c3	-0.45256624
59	0xbee79d69	-0.45237282
60	0x3f31af5b	0.69408196
61	0x3f29703a	0.6618687
62	0x3d2e8208	0.042604476
63	0x3e88fd0e	0.26755565

rnn_link_level.weight_hh_l1 f4 [8, 8]
0	0xbdc6e434	-0.09711495
1	0x3ea1ce68	0.31602788
2	0x3f16e866	0.5894836
3	0x3bbb57d9	0.0057172594
4	0xbe22da4a	-0.15903583
5	0x3e0f1633	0.13973312
6	0xbe26789b	-0.16256945
7	0xbe4067d0	-0.18789601
8	0x3e4edab4	0.20200616
9	0x3f1b7367	0.60722965
10	0x3eb4a894	0.35284865
11	0xbf2637f3	-0.6492912
12	0xbe28620d	-0.16443653
13	0xbf41c579	-0.75691944
14	0x3f7afef1	0.9804526
15	0xbe27d1c7	-0.16388617
16	0xbf1ed280	-0.6203995
17	0xbe16bb7b	-0.14719956
18	0xbe917283	-0.28407678
19	0xbd91a25e	-0.07111047
20	0xbf772d3f	-0.96553415
21	0x3f1b739e	0.6072329
22	0xbe6dd441	-0.232255
23	0xbf3991eb	-0.7248828
24	0xbd5a88ef	-0.053353246
25	0xbd88e759	-0.06684751
26	0xbe5f0c0f	-0.21781944
27	0x3dca9963	0.098925374
28	0x3fa8ab82	1.317734
29	0xbf401ca8	-0.75043726
30	0xbf224796	-0.6339048
31	0x3f437e24	0.7636435
32	0x3d10ddf8	0.035367936
33	0xbe43f5f3	-0.19136791
34	0xbed9ede2	-0.42564303
35	0x3e42ea54	0.19034702
36	0x3f502688	0.81308794
37	0x3e173cf7	0.1476935
38	0xbfa494b8	-1.2857885
39	0x3fd3c945	1.6545798
40	0xbe1e9c8d	-0.15489407
41	0x3f705abe	0.9388846
42	0xbf5550ff	-0.83326715
43	0x3f8f9e17	1.122012
44	0x3d990e4f	0.07473432
45	0x3d8f2f96	0.06991498
46	0xbeb37ebb	-0.35057625
47	0x3da6b7a9	0.08140499
48	0xbd826273	-0.06366434
49	0xbf1b1122	-0.6057302
50	0xbe2862ba	-0.16443911
51	0xbc33ec7a	-0.010981673
52	0xbf4e1129	-0.80494934
53	0xbf4051e1	-0.7512494
54	0x3eedeb3a	0.46468526
55	0xbdc0039b	-0.09375688
56	0x3dac7cce	0.08422242
57	0xbf31e272	-0.69486153
58	0x3e41a34f	0.18909954
59	0x3d9a1b8c	0.075247854
60	0x3f3634e0	0.7117443
61	0x3fa879ba	1.3162148
62	0xbf08b19e	-0.5339602
63	0x3e86eec2	0.26354033

rnn_link_level.bias_ih_l1 f4 [8]
0	0x3bc90159	0.006134194
1	0xbcf860a7	-0.030319525
2	0xbf03ed3b	-0.5153386
3	0x3f394fc3	0.7238733
4	0x3f245508	0.6419225
5	0xbd91f6e1	-0.071271665
6	0xbf16acfb	-0.588577
7	0x3f7edad4	0.99552655

rnn_link_level.bias_hh_l1 f4 [8]
0	0xbe24c277	-0.16089807
1	0x3ecbdfd0	0.39819193
2	0xbe90136c	-0.28139818
3	0x3f4985cb	0.78719777
4	0x3f18be94	0.596658
5	0x3e33b3e0	0.17549086
6	0xbea6538f	-0.32485625
7	0x3f0335f0	0.5125418

rnn_link_level.weight_ih_l2 f4 [8, 8]
0	0xbe9e35bd	-0.30900374
1	0x3efbe070	0.4919467
2	0xbeec23dc	-0.4612111
3	0x3ebc10a3	0.36731443
4	0xbe8c2b39	-0.27376726
5	0xbf92768d	-1.1442429
6	0xbe808516	-0.25101537
7	0xbe22e7df	-0.15908764
8	0xbe67342f	-0.225785
9	0x3ef07ed5	0.46971765
10	0x3c9b0431	0.018922897
11	0xbec44d6a	-0.38340312
12	0xbdf9e52b	-0.122019134
13	0xbf59f0e6	-0.85133207
14	0xbe07438a	-0.13209358
15	0x3e85265f	0.26005837
16	0xbee46daa	-0.44614917
17	0x3e13250e	0.14369604
18	0xbf0db60c	-0.55355906
19	0x3ecfd1e1	0.40589812
20	0x3d97dc6b	0.07415088
21	0xbf840657	-1.0314435
22	0x3ea61627	0.32438776
23	0x3c06f85f	0.008237927
24	0xbe02bfbf	-0.12768458
25	0x3dc8212c	0.09771952
26	0xbfa59314	-1.293551
27	0x3f9362c2	1.1514513
28	0x3f0780a6	0.52930677
29	0x3e370fd7	0.17877136
30	0xbeb8bc33	-0.36081085
31	0xbf380037	-0.7187533
32	0x3e1ffadd	0.1562304
33	0x3f1f0ea1	0.62131697
34	0x3d809265	0.062779225
35	0xbf3ad8cd	-0.7298706
36	0x3cdcf010	0.02696994
37	0xbf694a0f	-0.9112863
38	0x3eafbace	0.34322208
39	0x3f311a3f	0.69180673
40	0xbe300a24	-0.17191368
41	0xbf1c2597	-0.6099486
42	0xbca786ce	-0.020450022
43	0x3e08bb53	0.13352709
44	0x3e9dfa48	0.30855012
45	0xbe8f24f9	-0.27957895
46	0xbe914008	-0.28369164
47	0xbd4b8011	-0.04968268
48	0x3e883760	0.26604748
49	0x3f0cfeb0	0.5507612
50	0x3e207d5f	0.15672825
51	0xbee3255b	-0.44364437
52	0xbf3bcd0a	-0.7335974
53	0xbeb059de	-0.34443563
54	0x3f60f37b	0.8787152
55	0xbf9a40ac	-1.2050986
56	0xbe2dcbb6	-0.16972241
57	0xbf43c1af	-0.7646741
58	0xbe8bae28	-0.27281308
59	0x3fcbadae	1.5912378
60	0x3f8f67da	1.1203568
61	0x3f23ca6f	0.63980764
62	0xbf388272	-0.72074044
63	0x3dde6746	0.108595416

rnn_link_level.weight_hh_l2 f4 [8, 8]
0	0xbdd105f3	-0.10206213
1	0x3d9c25a7	0.07624369
2	0xbe45fe1d	-0.19335218
3	0xbec8e3f9	-0.3923643
4	0x3f021b6a	0.5082308
5	0xbda7f3ff	-0.082008354
6	0x3eaf54a5	0.34244266
7	0xbc1aba79	-0.009443873
8	0x3e7b4431	0.24537732
9	0xbdd0db76	-0.10198109
10	0x3e94eb0a	0.2908557
11	0xbf029ecd	-0.5102356
12	0x3f88196f	1.0632762
13	0x3e4c7e16	0.19969973
14	0xbd1abc35	-0.037777144
15	0xbeed4100	-0.46338654
16	0xbdcacab4	-0.09901944
17	0x3f099c9a	0.5375458
18	0xbf0af818	-0.5428481
19	0xbf31cb0e	-0.6945046
20	0x3e7c569f	0.24642418
21	0x3ea4b3c6	0.32168406
22	0xbcc30a18	-0.023808524
23	0xbe7fee2b	-0.24993198
24	0xbde2e8a8	-0.11079532
25	0xbd911e3e	-0.07085846
26	0x3e9c450e	0.30521435
27	0xbe264102	-0.16235736
28	0x3cc1ef70	0.023673743
29	0x3f4a825d	0.7910517
30	0xbeda9054	-0.4268824
31	0x3f2dbd2a	0.67866766
32	0xbe34f7b4	-0.17672616
33	0xbe80c3cf	-0.2514939
34	0xbf4283e6	-0.7598251
35	0x3dc23548	0.09482819
36	0x3e3d034d	0.1845829
37	0x3dea0e17	0.11428469
38	0x3edaa69d	0.4270524
39	0xbe8a5b8a	-0.27022964
40	0xbf2a5e5c	-0.6655023
41	0xbf85af57	-1.0444134
42	0xbfa04537	-1.2521123
43	0xbebe0ff2	-0.3712154
44	0x3cee1aff	0.029065607
45	0x3efc612f	0.49292895
46	0xbf716a18	-0.9430251
47	0x3e9e7836	0.3095109
48	0x3e9849e9	0.2974389
49	0x3e4cb38d	0.19990368
50	0x3efea73f	0.49736974
51	0x3f0f2380	0.55913544
52	0xbcd89ec9	-0.026442902
53	0xbed79539	-0.42106035
54	0x3f944e43	1.1586384
55	0xbee9a0f3	-0.45630607
56	0xbf1da733	-0.6158325
57	0xbee318cf	-0.44354865
58	0xbf405890	-0.75135136
59	0xbd3ac386	-0.045596622
60	0xbddcf95d	-0.1078975
61	0x3f284abc	0.65739036
62	0xbf879a28	-1.059392
63	0x3e9ce6f2	0.30644947

rnn_link_level.bias_ih_l2 f4 [8]
0	0xbd23c7f2	-0.039985605
1	0x3df8e5f2	0.121532336
2	0xbd0e838c	-0.03479342
3	0x3e88dce9	0.2673104
4	0x3e332b55	0.17496999
5	0x3e2128b5	0.15738185
6	0xbf34d567	-0.70638126
7	0x3e3436a9	0.17598976

rnn_link_level.bias_hh_l2 f4 [8]
0	0x3dff1dd6	0.12456863
1	0xbe341147	-0.17584716
2	0x3e6e6240	0.23279667
3	0x3f03daaa	0.5150553
4	0xbd12f890	-0.03588158
5	0xbeb79c32	-0.35861355
6	0xbf43b4e3	-0.76447886
7	0x3e38be8a	0.18041435

rnn_link_level.weight_ih_l3 f4 [8, 8]
0	0xbf306ed1	-0.6891909
1	0xbee443a4	-0.44582856
2	0xbeed47f4	-0.46343958
3	0x3ec709ff	0.38874814
4	0xbe5ed895	-0.21762307
5	0x3ebb7933	0.36615905
6	0xbf56281b	-0.83654946
7	0x3ef90f9c	0.48644722
8	0x3f1c62ef	0.6108846
9	0xbd82f216	-0.063938305
10	0x3f045daf	0.5170545
11	0x3d8155d5	0.06315199
12	0x3e9b7342	0.30361372
13	0xbe568592	-0.2094939
14	0x3ea3299f	0.31867692
15	0xbf180747	-0.59386104
16	0xbe98b945	-0.2982885
17	0xbf44421e	-0.76663387
18	0xbea62cc4	-0.32456028
19	0x3e0ab024	0.13543755
20	0xbf1cfedf	-0.613264
21	0x3f08a5d6	0.53378046
22	0x3db64dbf	0.08901548
23	0x3eb8507d	0.35998908
24	0xbf12ba2e	-0.5731534
25	0xbf1455ab	-0.5794322
26	0xbf1229be	-0.57094944
27	0x3eb8c41d	0.36087123
28	0xbf7a770b	-0.97837895
29	0x3ec95a00	0.39326477
30	0xbf33cb8b	-0.70232457
31	0x3fafddb4	1.3739533
32	0xbf1e284c	-0.6178024
33	0xbefbc65f	-0.49174783
34	0xbf13e976	-0.5777811
35	0x3f727bde	0.94720256
36	0xbe3ae08b	-0.18249719
37	0x3ebdee0d	0.3709568
38	0xbf024c09	-0.5089727
39	0x3f26b57e	0.65120685
40	0x3e839edd	0.2570714
41	0x3ec688e7	0.38776323
42	0x3ebfb9d8	0.37446475
43	0xbdfe133a	-0.12406011
44	0x3edf98aa	0.4367116
45	0xbef3cead	-0.4761862
46	0xbd99f543	-0.07517483
47	0xbdb9479c	-0.090468615
48	0x3ec021cc	0.37525785
49	0x3f112074	0.56690145
50	0xbdf610d1	-0.12014926
51	0xbf00b0d4	-0.5026982
52	0x3e9e4076	0.30908555
53	0xbef3e08a	-0.47632247
54	0x3f145f34	0.5795777
55	0xbf699413	-0.9124157
56	0xbe4cd33f	-0.20002459
57	0xbf868fc6	-1.0512626
58	0xbe93ba38	-0.2885301
59	0xbd4e57dc	-0.050376758
60	0xbd006e39	-0.031355117
61	0x3f3e8fd4	0.74438214
62	0x3a691be2	0.00088923995
63	0x3dbabd4d	0.091181375

rnn_link_level.weight_hh_l3 f4 [8, 8]
0	0xbddc8e5c	-0.107693404
1	0xbea94f50	-0.33068323
2	0x3e3084fc	0.1723823
3	0x3f3ee43a	0.74566996
4	0xbe5f8ef1	-0.21831872
5	0xbeed740e	-0.46377605
6	0xbf2f18bc	-0.68397117
7	0x3ef475a9	0.47746018
8	0xbea672d7	-0.3250949
9	0x3e921436	0.28531045
10	0xbec01f3f	-0.3752384
11	0xbf2895c8	-0.6585355
12	0xbc811599	-0.015757369
13	0x3dceb90c	0.10093889
14	0x3f0023a2	0.5005437
15	0xbe73c041	-0.23803808
16	0x3e93481e	0.2876596
17	0xbf161aa0	-0.58634377
18	0xbf46d4af	-0.7766828
19	0x3f5ff54c	0.8748367
20	0x3fe13e14	1.759707
21	0xbe3b5df5	-0.1829756
22	0xbef19f9e	-0.4719209
23	0x3f6aba7c	0.916908
24	0x3d43695d	0.047707904
25	0xbf020bae	-0.5079907
26	0xbc0ac79b	-0.008470441
27	0xbdf967c7	-0.12177997
28	0x3d5f7aa4	0.05456032
29	0xbeeabac9	-0.4584563
30	0xbe549cd5	-0.20762952
31	0x3ef37667	0.4755127
32	0x3f7fc4bb	0.9990956
33	0xbf6ff084	-0.9372637
34	0xbf18516b	-0.59499234
35	0x3f72bbbc	0.9481771
36	0xbf99e231	-1.2022153
37	0xbf058baf	-0.52166265
38	0xbed1dce0	-0.40988827
39	0x3e865d93	0.26243266
40	0xbece62ec	-0.40309846
41	0x3e052cb9	0.13005342
42	0xbf09909d	-0.5373629
43	0xbef750aa	-0.4830373
44	0xbd8f2324	-0.069891244
45	0x3e9289fc	0.286209
46	0x3f3088b8	0.68958616
47	0xbf591d21	-0.8481007
48	0xbe8bf8ba	-0.273382
49	0x3ed4dcc3	0.41574678
50	0xbe945eff	-0.28978726
51	0xbe15468c	-0.14577693
52	0xbf1238f0	-0.5711813
53	0x3dbd6e0a	0.09249504
54	0x3eeb9bd9	0.4601734
55	0xbf1f7c8f	-0.62299436
56	0x3e32a1cf	0.17444538
57	0x3eae9fff	0.34106442
58	0x3cae9872	0.021312926
59	0xbed25c47	-0.41086027
60	0x3eb65068	0.3560822
61	0x3d6f55dd	0.058431495
62	0xbda262d0	-0.07929003
63	0xbe253516	-0.16133532

rnn_link_level.bias_ih_l3 f4 [8]
0	0x3ecb10bd	0.39661208
1	0xbe8490cf	-0.2589173
2	0x3e08961c	0.13338512
3	0x3f00c3ae	0.50298584
4	0x3ebf031b	0.37307057
5	0x3eb3b182	0.35096365
6	0x3d000da0	0.031262994
7	0xbe7677c6	-0.24069127

rnn_link_level.bias_hh_l3 f4 [8]
0	0x3f3730fb	0.71559113
1	0xbf2f4575	-0.6846536
2	0xbd4d5e8c	-0.050138995
3	0x3f032e4f	0.51242536
4	0x3ebe0592	0.37113625
5	0xbe0d6da4	-0.13811356
6	0xbe0b215d	-0.13586946
7	0xbe8ed06f	-0.27893397

rnn_link_level.weight_ih_l4 f4 [8, 8]
0	0x3d9d369b	0.07676431
1	0xbe7c2fa7	-0.24627553
2	0x3dda4b70	0.1065892
3	0x3ed020bd	0.40649977
4	0x3e2fc8e5	0.17166479
5	0xbf4c020f	-0.7969064
6	0xbe9fef80	-0.31237411
7	0x3e97c048	0.29638886
8	0x3e366f2c	0.17815846
9	0xbe3be30e	-0.18348333
10	0x3fef5133	1.8696655
11	0x3f5237f2	0.82116616
12	0xbf2c8325	-0.6738761
13	0xbf5988e5	-0.8497451
14	0xbf3cab61	-0.73699003
15	0x3f22b854	0.6356251
16	0x3ef20f94	0.4727751
17	0xbec5e291	-0.3864942
18	0x3f07d8ef	0.5306539
19	0xbe89ba38	-0.26899886
20	0x3d913a2c	0.070911735
21	0xbe7f57ff	-0.24935912
22	0xbea5a1f4	-0.32350123
23	0xbe97894e	-0.29596943
24	0xbe0610eb	-0.13092391
25	0xbd20cd75	-0.03925844
26	0x3f1a1812	0.6019298
27	0x3f50c172	0.81545174
28	0x3e620e0f	0.22075675
29	0xbddbc5dc	-0.10731098
30	0xbf5b5c95	-0.85688144
31	0x3f498064	0.78711534
32	0x3f0959a3	0.536524
33	0xbeac3d74	-0.33640635
34	0x3e02d783	0.12777524
35	0x3ead5b85	0.33858886
36	0x3ed58927	0.417062
37	0xbf57a950	-0.84242725
38	0xbede8274	-0.43458903
39	0x3ed2d47c	0.41177738
40	0xbed48493	-0.41507396
41	0x3f297a7f	0.6620254
42	0xbdebbe51	-0.11510909
43	0xbf17b4c1	-0.59260184
44	0xbecf93c1	-0.40542415
45	0x3f894ca5	1.0726515
46	0x3f47be82	0.78025067
47	0xbf1fea66	-0.6246704
48	0xbe8320a8	-0.25610852
49	0x3f0e735d	0.5564478
50	0xbeded6f6	-0.43523377
51	0xbf035971	-0.5130835
52	0xbec8c300	-0.39211273
53	0x3e0ee2a2	0.13953641
54	0x3f0b836b	0.544974
55	0xbf09a8db	-0.5377328
56	0xbf67b3fd	-0.90509015
57	0x3ed7df4d	0.42162552
58	0x3eecf7dc	0.46282852
59	0xbf2a9caf	-0.6664533
60	0xbf8c9d5d	-1.0985523
61	0x3ebfa11d	0.37427607
62	0x3e115398	0.14192045
63	0xbcce0e42	-0.025153283

rnn_link_level.weight_hh_l4 f4 [8, 8]
0	0xbf10ad58	-0.565145
1	0xbed82b3a	-0.4222048
2	0x3dce81ce	0.10083352
3	0x3e4096dd	0.1880755
4	0x3d6a4d2a	0.057202496
5	0x3e30cb8e	0.1726515
6	0xbdc3d1b2	-0.095614806
7	0x3e2bc40e	0.16774008
8	0x3d407565	0.046986956
9	0xbef14c21	-0.47128394
10	0xbecac351	-0.3960214
11	0x3e9766a9	0.2957051
12	0xbd624371	-0.0552401
13	0xbf1e5e8c	-0.6186302
14	0xbdfef838	-0.12449688
15	0xbf2e2ad6	-0.6803411
16	0x3f050e90	0.51975346
17	0x3e6ae909	0.22940458
18	0x3e22c446	0.15895185
19	0x3e6679e8	0.22507441
20	0xbe7dcdc5	-0.24785526
21	0xbed57d2b	-0.41697058
22	0x3df08b5a	0.11745329
23	0x3e0954d5	0.13411267
24	0x3f0889d9	0.5333534
25	0x3e3bb65a	0.1833128
26	0xbed42513	-0.41434535
27	0xbd763049	-0.060104642
28	0xbf1576c9	-0.58384377
29	0xbefd1842	-0.4943257
30	0xbe2b7c4e	-0.16746637
31	0x3ca2aec4	0.019858725
32	0x3f00cf10	0.5031595
33	0x3ef3297e	0.47492594
34	0xbf08bcc5	-0.5341304
35	0x3ea348df	0.31891534
36	0xbeb6d63e	-0.3571033
37	0xbe157936	-0.1459702
38	0xbeef8ab0	-0.46785498
39	0xbe8ba61e	-0.27275175
40	0xbeab6d65	-0.334819
41	0x3e0a45ba	0.13503161
42	0x3f23a984	0.63930535
43	0xbe567702	-0.20943835
44	0x3db43d97	0.0880081
45	0xbd33f518	-0.04393491
46	0x3f0cc087	0.54981273
47	0x3ec0d2ad	0.37660733
48	0x3d70b2a3	0.05876411
49	0xbe3612a8	-0.17780554
50	0x3eeb51bf	0.45960805
51	0xbf2183f4	-0.6309197
52	0x3f19c16b	0.6006076
53	0x3ebbcda4	0.3668033
54	0x3f1786d8	0.5919013
55	0xbed37830	-0.41302633
56	0xbf353937	-0.7079043
57	0x3e105b7f	0.14097403
58	0x3ea1d8ce	0.3161072
59	0xbf340ae5	-0.70329124
60	0x3e398065	0.18115385
61	0x3f5351a5	0.82546455
62	0x3e90a946	0.28254145
63	0xbe6fd60b	-0.23421495

rnn_link_level.bias_ih_l4 f4 [8]
0	0x3eb4603f	0.3522968
1	0x3ea6675d	0.32500735
2	0xbe4a8f5e	-0.19781253
3	0x3ec22a5b	0.3792294
4	0x3cce43fd	0.025178904
5	0xbef53d68	-0.47898412
6	0xbf20314f	-0.6257524
7	0xbf0962cc	-0.5366638

rnn_link_level.bias_hh_l4 f4 [8]
0	0x3d30337c	0.04301785
1	0x3f03980d	0.51403886
2	0x3e97730c	0.2957996
3	0x3f2c4fd5	0.67309314
4	0x3e833181	0.25623706
5	0xbef01e33	-0.4689804
6	0xbf4bd454	-0.7962086
7	0xbf0debd7	-0.5543799

rnn_link_level.weight_ih_l5 f4 [8, 8]
0	0x3f03a02e	0.5141629
1	0xbe22b8bc	-0.15890783
2	0xbe715175	-0.2356623
3	0x3eddd2f6	0.43325013
4	0x3ebaf9fb	0.36518845
5	0xbe9752c9	-0.29555348
6	0xbeacd628	-0.33757138
7	0x3e8c0073	0.27344093
8	0x3e486f0f	0.19573615
9	0xbd121124	-0.035660878
10	0xbec65a55	-0.38740793
11	0x3f1a51ef	0.6028127
12	0xbd2a1433	-0.04152317
13	0x3c8e4f46	0.017371785
14	0xbf216a36	-0.6305269
15	0x3d2abb1d	0.04168235
16	0x3eddaee2	0.43297487
17	0xbe70993c	-0.23495954
18	0xbf11fe09	-0.5702825
19	0x3e24133e	0.16022965
20	0xbe1e2b32	-0.15446165
21	0xbeeffaf2	-0.46871144
22	0xbf11f23f	-0.57010263
23	0xbe90ddae	-0.28294128
24	0xbe9fb64d	-0.31193772
25	0xbf49a1b7	-0.7876238
26	0x3e554a83	0.20829205
27	0xbf44dfb5	-0.7690385
28	0x3c3558f9	0.011068576
29	0x3f0483d2	0.5176364
30	0x3f5462ed	0.8296345
31	0xbee7a0ca	-0.4523986
32	0x3d4dbebc	0.050230727
33	0xbe942192	-0.28931862
34	0xbf1ff968	-0.6248994
35	0xbcc09af0	-0.02351138
36	0x3d837076	0.064179346
37	0x3e9a01df	0.30079553
38	0xbc472de6	-0.012156939
39	0x3eb6d125	0.3570644
40	0x3ee94c35	0.45565954
41	0x3f190253	0.5976917
42	0x3ed7ab93	0.42123088
43	0x3eb38847	0.3506491
44	0x3f0984f9	0.53718525
45	0xbeb53fbb	-0.35400185
46	0x3dc90932	0.09816207
47	0xbf07836c	-0.5293491
48	0xbe4c19ba	-0.19931689
49	0x3e330110	0.17480874
50	0x3e8cd8ac	0.27509058
51	0x3e039ef0	0.12853599
52	0x3e9e2951	0.30890897
53	0xbe2cde82	-0.16881755
54	0x3ed4b560	0.41544628
55	0x3d502fe9	0.05082694
56	0xbe8f90dd	-0.2804021
57	0xbe824668	-0.2544434
58	0x3ea2e403	0.31814584
59	0xbeea64e8	-0.4578011
60	0xbe4e91f9	-0.20172872
61	0x3ee9ba8a	0.4565013
62	0x3dc93326	0.09824209
63	0x3d4a588f	0.049400862
