bgpsyche/data/models/bgpsyche.pt (torch, 26818 bytes, 73 tensors)

rnn_as_level.weight_ih_l0 f4 [8, 15]
0.079076044 -0.3676248 0.4904446 1.1467572 -0.39495632 -2.1589649 0.04221355 0.24950783
-0.646633 -0.009247718 -0.6215553 -0.47962517 0.4595059 0.18870483 -0.35025114 0.6632506
1.1152539 -0.120146744 0.17294754 1.2175698 1.6126423 -0.026050057 0.9202183 0.4441516
-1.0516723 -0.56473154 -1.1219698 0.52241164 -0.024349373 0.24979281 -2.080977 -0.13689703
0.37925193 0.60083085 -0.19886537 -1.6507947 -0.968716 0.79858994 0.026989115 0.6989623
-0.079762496 -3.68125 0.30272928 0.18590768 -1.1216453 -0.7133585 -0.64162993 -0.9681807
0.18929616 -0.4095719 1.4968072 -0.14378744 -0.5404596 0.40119153 0.13518967 0.76295507
0.3931769 -0.83731264 -0.29210582 0.7801293 -0.15535335 0.601445 -0.6140836 -0.42029557
-0.16132046 1.4174997 -0.2520629 0.88607645 1.161843 -0.86723065 -0.8773222 -0.09425491
-0.16650055 0.27119136 0.06488591 0.9091457 -0.10881638 -0.3537202 0.1072328 -0.09650149
-1.4909554 -0.22796154 0.40996653 0.31562194 0.71335995 -0.25976738 0.17555904 -0.08155798
-0.33806276 -0.062296595 -0.7007959 0.74612993 0.23945355 -0.0678481 0.46022552 2.1078854
0.18138833 -0.28024155 -0.18759517 -0.54402554 -0.44771874 -0.004969858 0.11443402 0.2528
0.3719736 -0.26396126 -0.03820744 0.4269103 0.12091988 -0.11067023 -0.8962766 -0.042520717
0.2013198 0.6704356 0.4452631 1.44826 -0.28499606 -0.12251337 0.2257598 0.84742343
00000000: 9ff2 a13d 5139 bcbe 8e1b fb3e f1c8 923f
00000010: b737 cabe 7b2c 0ac0 1ee8 2c3d fb7e 7f3e
00000020: be89 25bf be83 17bc 401e 1fbf 6e91 f5be
00000030: 5b44 eb3e d73b 413e 1e54 b3be cbca 293f
00000040: a4c0 8e3f 7f0f f6bd 2919 313e 54d9 9b3f
00000050: 106b ce3f ee66 d5bc 6d93 6b3f d767 e33e
00000060: 339d 86bf 3f92 10bf b59c 8fbf c5bc 053f
00000070: 5678 c7bc b0c9 7f3e ba2e 05c0 bc2e 0cbe
00000080: 4f2d c23e 0dd0 193f 5da3 4bbe 3e4d d3bf
00000090: c6fd 77bf 6470 4c3f 4718 dd3c 31ef 323f
000000a0: 855a a3bd 9a99 6bc0 55ff 9a3e 955e 3e3e
000000b0: 1392 8fbf aa9e 36bf dc41 24bf b1da 77bf
000000c0: dad6 413e 68b3 d1be 6197 bf3f 043d 13be
000000d0: 8f5b 0abf fa68 cd3e 296f 0a3e 0651 433f
000000e0: 7c4e c93e 1f5a 56bf e58e 95be 8eb6 473f
000000f0: f314 1fbe 4df8 193f 9534 1dbf fb30 d7be
00000100: 3131 25be a170 b53f 630e 81be e8d5 623f
00000110: 45b7 943f d402 5ebf 3098 60bf b808 c1bd
00000120: 1f7f 2abe 98d9 8a3e e7e2 843d c6bd 683f
00000130: 1fdb debd d01a b5be df9c db3d 93a2 c5bd
00000140: a0d7 bebf c06e 69be 22e7 d13e 3399 a13e
00000150: c29e 363f 3b00 85be c0c5 333e df07 a7bd
00000160: 9016 adbe b72a 7fbd 5c67 33bf 5f02 3f3f
00000170: 5033 753e f2f3 8abd aea2 eb3e 98e7 0640
00000180: ddbd 393e d27b 8fbe f318 40be 4245 0bbf
00000190: 643b e5be 31da a2bb 625c ea3d 006f 813e
000001a0: 5373 be3e ee25 87be 687f 1cbd fd93 da3e
000001b0: d8a4 f73d 13a7 e2bd 6272 65bf 342a 2ebd
000001c0: c726 4e3e aba1 2b3f 86f9 e33e 9560 b93f
000001d0: 01eb 91be 4ae8 fabd 942d 673e bef0 583f

rnn_as_level.weight_hh_l0 f4 [8, 8]
-0.9374103 0.25203422 -0.72731864 -0.26586404 0.5288092 -0.47942495 0.6759802 -0.40235218
0.17260188 -0.9035576 0.037922073 0.11665897 -0.49376446 0.50339836 -1.1342692 0.30310452
0.32200292 0.22192389 -0.56979877 -1.5369724 -0.15221776 0.14763701 0.09073497 0.23351641
1.1242492 -0.16277432 0.11594777 -0.37040675 -0.1079853 -0.52728283 0.5496121 -0.046428412
0.039479826 -1.1554365 0.018623738 0.52219456 -0.37072605 0.29078138 -0.5380168 0.28384122
-0.1527961 1.1278266 -0.4852989 -0.19247343 1.0247772 -0.22626631 1.0250562 -0.39706373
0.20668277 -1.4939826 0.21025407 0.6182868 -1.0970061 0.45427915 -0.84504676 0.648993
0.29121488 1.8547672 -0.45801342 -0.2508402 0.42427143 0.39349705 0.38068658 0.56522197
00000000: 1ffa 6fbf a10a 813e 8e31 3abf 551f 88be
00000010: 0a60 073f 3077 f5be 0a0d 2d3f 1b01 cebe
00000020: 8cbe 303e 8d4f 67bf 2d54 1b3d e6ea ee3d
00000030: b2ce fcbe b7de 003f bc2f 91bf 8430 9b3e
00000040: 91dd a43e 0440 633e 55de 11bf 83bb c4bf
00000050: f9de 1bbe 282e 173e 42d3 b93d ed1e 6f3e
00000060: 66e7 8f3f 50ae 26be 0676 ed3d f4a5 bdbe
00000070: 6627 ddbd 02fc 06bf 61b3 0c3f b82b 3ebd
00000080: 99b5 213d 58e5 93bf cf90 983c 8bae 053f
00000090: cecf bdbe 4ce1 943e 78bb 09bf a353 913e
000000a0: 9576 1cbe 9f5c 903f 1979 f8be c117 45be
000000b0: e62b 833f 5bb2 67be 0b35 833f f04b cbbe
000000c0: a6a4 533e d23a bfbf d84c 573e 0b48 1e3f
000000d0: b26a 8cbf 4797 e83e fc54 58bf 6824 263f
000000e0: 1e1a 953e 0369 ed3f bc80 eabe 206e 80be
000000f0: 1b3a d93e 7278 c93e 5ae9 c23e 63b2 103f

rnn_as_level.bias_ih_l0 f4 [8]
0.059482552 -0.29180488 -0.43132037 0.30024767 0.15026501 -0.24867934 -0.015245129 -0.36117297
00000000: faa3 733d 7367 95be 06d6 dcbe 10ba 993e
00000010: 12df 193e cca5 7ebe b5c6 79bc aaeb b8be

rnn_as_level.bias_hh_l0 f4 [8]
-0.14329131 -0.022942916 0.04878218 0.22790967 0.05099549 -0.041465756 -0.2634616 -0.3363319
00000000: f5ba 12be c8f2 bbbc d3cf 473d 2761 693e
00000010: a6e0 503d ffd7 29bd 70e4 86be b233 acbe

rnn_as_level.weight_ih_l1 f4 [8, 8]
-0.424455 0.5183386 -1.4328269 -0.86402816 -0.5100665 1.1687526 0.15453008 -0.010253887
-0.15966453 0.80142796 -0.15836973 -0.47028574 0.1280408 -0.079089135 0.44363037 -0.009664909
-0.582282 -0.8883207 -0.5096884 1.149553 -0.2220205 -0.75052506 0.20853633 0.37786132
0.14911671 -0.3316116 -0.84347755 0.21427655 -0.49898097 0.21115969 -0.82777375 -0.18727358
-0.13464527 0.6419937 0.31143942 0.15379186 0.39522615 -0.5913892 0.7793843 0.18763176
0.5307149 -0.720567 -0.5877255 0.2775311 -0.2564065 0.44873887 -0.9594695 -0.07149122
0.63596123 0.30432227 0.5241279 0.4284203 -0.4938057 -0.39198533 1.7147952 -0.16840482
0.0060657463 -0.17063116 -0.8520135 0.57927775 0.24803518 -0.020866197 -0.10106586 -0.11748031
00000000: 2a52 d9be d7b1 043f df66 b7bf f330 5dbf
00000010: b893 02bf af99 953f 223d 1e3e ebff 27bc
00000020: 197f 23be 622a 4d3f ad2b 22be 4bc9 f0be
00000030: 211d 033e 7cf9 a1bd 8523 e33e 9159 1ebc
00000040: 6f10 15bf fc68 63bf f07a 02bf 8d24 933f
00000050: 5859 63be 6922 40bf 8c8a 553e 0a77 c13e
00000060: 0db2 183e ffc8 a9be 25ee 57bf 506b 5b3e
00000070: 6f7a ffbe 3f3a 583e fbe8 53bf a5c4 3fbe
00000080: 73e0 09be b359 243f fd74 9f3e 9d7b 1d3e
00000090: 155b ca3e 4865 17bf bb85 473f 8a22 403e
000000a0: efdc 073f 1477 38bf 2e75 16bf 8e18 8e3e
000000b0: b647 83be 1ac1 e53e cb9f 75bf fd69 92bd
000000c0: 5bce 223f 21d0 9b3e 3f2d 063f e859 db3e
000000d0: 1ad4 fcbe 4db2 c8be 697e db3f 5072 2cbe
000000e0: 2bc3 c63b efb9 2ebe 8f1d 5abf 8c4b 143f
000000f0: effc 7d3e 96ef aabc 9efb cebd 8499 f0bd

rnn_as_level.weight_hh_l1 f4 [8, 8]
0.03759398 -0.274205 0.97290635 0.544254 -1.2227193 1.4567606 0.23221542 0.077276215
-1.2134488 0.08775259 -0.5290567 -0.15665464 -0.64813447 -0.080895856 -1.5863179 0.4512857
0.32352406 1.0868064 0.6273709 0.55860484 1.3779112 -0.48594743 2.3863037 0.20965531
-0.7691851 -0.49763757 1.4586722 0.40033635 -0.5870276 0.58691645 0.5752412 0.00014161617
-0.3044221 -0.24541134 0.7727724 -0.94052386 -0.21499181 0.31919345 -0.085819304 -0.29038796
0.5488478 0.88263845 -0.7726719 0.4488015 0.5908014 -0.5978254 0.31652212 0.3882122
0.04567579 -0.46302915 0.31997368 -0.61000943 0.2543379 -0.28479382 0.41787413 -0.95206994
0.67123985 0.1834491 -0.15585762 0.7322408 -0.235662 -0.3033676 0.13946758 -0.28110784
00000000: 25fc 193d 9964 8cbe 6410 793f 3b54 0b3f
00000010: 1182 9cbf 2277 ba3f e1c9 6d3e fe42 9e3d
00000020: 4a52 9bbf a1b7 b33d 4370 07bf 136a 20be
00000030: 24ec 25bf baac a5bd 770c cbbf eb0e e73e
00000040: f2a4 a53e 791c 8b3f 619b 203f ba00 0f3f
00000050: 655f b03f 1ace f8be 33b9 1840 e2af 563e
00000060: 51e9 44bf 5aca febe c5b5 ba3f e3f8 cc3e
00000070: 7147 16bf 2840 163f 0243 133f cd7e 1439
00000080: 37dd 9bbe 1c4d 7bbe 69d4 453f 2cc6 70bf
00000090: d026 5cbe 536d a33e 08c2 afbd bbad 94be
000000a0: 4a81 0c3f 98f4 613f d3cd 45bf 4fc9 e53e
000000b0: c33e 173f 160b 19bf 300f a23e c0c3 c63e
000000c0: 8a16 3b3d 2812 edbe 97d3 a33e 9429 1cbf
000000d0: 9438 823e 7fd0 91be 99f3 d53e dbba 73bf
000000e0: 60d6 2b3f 15da 3b3e 2499 1fbe 2274 3b3f
000000f0: 6151 71be 0053 9bbe 97d0 0e3e 5eed 8fbe

rnn_as_level.bias_ih_l1 f4 [8]
-0.28491455 -0.44462067 0.57476276 0.24173152 -0.18616053 0.23509847 0.27138758 0.428429
00000000: 52e0 91be 52a5 e3be a723 133f 7888 773e
00000010: dea0 3ebe a7bd 703e 50f3 8a3e 0c5b db3e

rnn_as_level.bias_hh_l1 f4 [8]
-0.7778298 -0.13996975 0.12947759 0.052633435 -0.13869928 0.07519064 0.32986006 0.19631778
00000000: db1f 47bf 3b54 0fbe c695 043e 2896 573d
00000010: 2f07 0ebe 8dfd 993d 6be3 a83e 8707 493e

rnn_as_level.weight_ih_l2 f4 [8, 8]
0.34874943 0.026155477 -0.672971 0.6117099 -0.29189724 0.9625 -0.08318183 0.37877283
0.75714606 0.93398166 -1.2160796 0.27162713 0.60740274 -0.40834498 -0.029245773 0.28284127
0.8800183 0.67048806 -0.8459715 -0.27801895 0.075857505 -0.67035383 0.012750646 -0.326915
-0.83359087 -0.13555509 -0.5277109 -0.6027327 0.101731 -0.35340527 -0.15703368 -0.5526119
0.10081268 0.2365057 0.41510332 -0.14044367 0.24212137 -0.8407606 0.18519312 -0.1364975
-0.69980544 -0.59936434 -0.73434925 -0.17224151 -0.29332015 0.5110607 -1.2692899 -0.19544113
0.7612876 0.1614347 -0.8112226 0.56150657 -0.6581757 1.0062002 -0.46678013 0.20139186
-0.09100672 -0.2187271 0.5242468 0.47551528 -0.5808284 0.4666231 -0.22710055 0.27182502
00000000: 498f b23e 0344 d63c d447 2cbf 0599 1c3f
00000010: 8e73 95be 6666 763f 3c5b aabd 83ee c13e
00000020: 53d4 413f 6c19 6f3f 7fa8 9bbf b612 8b3e
00000030: bf7e 1b3f 9812 d1be d594 efbc 92d0 903e
00000040: e148 613f 1ba5 2b3f 9791 58bf 8058 8ebe
00000050: 2e5b 9b3d 4f9c 2bbf 16e8 503c 6761 a7be
00000060: 3666 55bf f4ce 0abe 1018 07bf b14c 1abf
00000070: 5858 d03d 89f1 b4be 70cd 20be f977 0dbf
00000080: e176 ce3d 8d2e 723e 6c88 d43e 77d0 0fbe
00000090: aaee 773e 163c 57bf 44a3 3d3e 00c6 0bbe
000000a0: 7326 33bf f16f 19bf 50fe 3bbf 1460 30be
000000b0: 0f2e 96be e0d4 023f 1778 a2bf b821 48be
000000c0: bfe3 423f 234f 253e 49ac 4fbf e5be 0f3f
000000d0: 347e 28bf 2bcb 803f cefd eebe ab39 4e3e
000000e0: bb61 babd fff9 5fbe 0a35 063f bd76 f33e
000000f0: 2cb1 14bf 39e9 ee3e 0c8d 68be a62c 8b3e

rnn_as_level.weight_hh_l2 f4 [8, 8]
-0.010056517 0.24237826 -0.22588658 -0.3525859 -0.06898837 -0.6618287 0.050751217 0.051386636
0.007860362 -0.17397171 -0.06883302 0.42347088 -0.45075533 0.9273162 0.46953207 0.020677863
0.096249186 0.040746663 -0.031731706 -0.00041523654 -0.4282927 1.0866257 0.25879622 -0.0002368763
0.29880053 -0.72513795 -0.29830465 0.16808347 0.2061833 1.2577095 -0.10902037 0.44700167
0.13020825 -1.0738754 -0.58517236 -0.34284285 -0.41499338 0.07228929 -0.47628164 0.2835076
0.8445707 -0.6598389 -0.19268468 0.3434853 -1.1162142 0.59763956 1.128279 -0.17385046
-0.11644647 -0.13658912 -0.16398014 0.32113272 -0.25725725 0.21621107 -0.25930172 -0.2570823
-0.38677922 0.9552427 0.48553446 0.08942272 0.20364495 -0.44975746 0.09183944 -0.27606758
00000000: 17c4 24bc 0232 783e d04e 67be 2486 b4be
00000010: c649 8dbd 9b6d 29bf 82e0 4f3d cb7a 523d
00000020: bfc8 003c a425 32be 54f8 8cbd 2dd1 d83e
00000030: 67c9 e6be 9864 6d3f 8266 f03e 9f64 a93c
00000040: 4b1e c53d f9e5 263d 1bf9 01bd 1bb4 d9b9
00000050: 2e49 dbbe 8d16 8b3f f080 843e ff61 78b9
00000060: 62fc 983e a4a2 39bf 63bb 98be 131e 2c3e
00000070: b721 533e a0fc a03f 1246 dfbd 67dd e43e
00000080: 5055 053e c074 89bf dbcd 15bf 1989 afbe
00000090: 037a d4be 680c 943d 30db f3be e827 913e
000000a0: c935 583f 34eb 28bf 224f 45be 4edd af3e
000000b0: 1be0 8ebf e8fe 183f 726b 903f db05 32be
000000c0: 7d7b eebd 05de 0bbe 69ea 27be 826b a43e
000000d0: 39b7 83be 6f66 5d3e 32c3 84be 4ba0 83be
000000e0: ed07 c6be c98a 743f f997 f83e 4223 b73d
000000f0: 4d88 503e 9c46 e6be 5116 bc3d bb58 8dbe

rnn_as_level.bias_ih_l2 f4 [8]
-0.16277954 0.11546145 -0.09529952 -0.17599003 -0.23049279 0.2969333 -0.027115045 0.06982697
00000000: aeaf 26be 0d77 ec3d 652c c3bd bb36 34be
00000010: 4d06 6cbe a407 983e 5f20 debc 7101 8f3d

rnn_as_level.bias_hh_l2 f4 [8]
0.24627753 -0.07340716 -0.15353955 -0.1476797 0.036317684 -0.14071701 -0.073789425 0.2906222
00000000: 2d30 7c3e 7e56 96bd 7939 1dbe 5939 17be
00000010: dac1 143d 1f18 10be e91e 97bd 6fcc 943e

rnn_as_level.weight_ih_l3 f4 [8, 8]
-0.22254868 -0.08630974 -0.072050005 0.62913364 -0.2883137 0.24513224 0.22103582 -0.118476555
-0.6511772 -0.20131727 -0.5039691 0.26024756 0.4939936 -0.622811 -1.485103 -0.04855915
0.08799165 -0.6434799 -0.41063777 -0.021254363 -0.52856725 0.09442298 -0.22493367 0.4488865
-0.16808896 0.50114995 1.2202187 0.36130372 0.39913052 0.26662216 -0.06999284 -0.74428165
-0.26810881 -0.5751164 0.24371412 0.74442977 0.0790108 0.18830185 -0.16779159 -0.060274426
-0.04382337 -0.13115983 -0.50199634 0.32012728 0.24624419 0.67275983 -0.17129155 -0.19437018
-1.4622915 -0.035515495 0.58843064 0.62897366 0.5549764 -0.024248144 -0.6132516 -0.37338826
-0.33937848 0.14769396 -0.35280603 -0.600734 0.47091156 -0.4878655 -0.057593178 0.017624918
00000000: cde3 63be 29c3 b0bd f48e 93bd e70e 213f
00000010: da9d 93be f203 7b3e 3757 623e d6a3 f2bd
00000020: 8db3 26bf 1d26 4ebe 1e04 01bf 2b3f 853e
00000030: bbec fc3e 8b70 1fbf db17 bebf f6e5 46bd
00000040: f734 b43d 19bb 24bf 1d3f d2be a11d aebc
00000050: 2f50 07bf d660 c13d 0355 66be 74d4 e53e
00000060: 831f 2cbe 5d4b 003f 2030 9c3f cdfc b83e
00000070: d65a cc3e b382 883e 6858 8fbd 3e89 3ebf
00000080: 8f45 89be d43a 13bf 3290 793e f392 3e3f
00000090: 6ad0 a13d 33d2 403e 8fd1 2bbe 51e2 76bd
000000a0: 2280 33bd c34e 06be d582 00bf b9e7 a33e
000000b0: 7027 7c3e fd39 2c3f 0d67 2fbe fa08 47be
000000c0: 5e2c bbbf b278 11bd 64a3 163f 6b04 213f
000000d0: ef12 0e3f 0ba4 c6bc 0ffe 1cbf bf2c bfbe
000000e0: 04c3 adbe 163d 173e fea2 b4be b4c9 19bf
000000f0: 521b f13e 82c9 f9be d3e6 6bbd 2262 903c

rnn_as_level.weight_hh_l3 f4 [8, 8]
0.42966527 0.37260613 0.06946423 -0.22791056 0.5961957 0.20355698 -0.13656221 -0.36136588
-0.46591377 -0.64701855 -0.9604948 -0.5019077 -0.584789 -0.66867125 0.06382839 0.48923945
-0.10131103 -0.40749678 -0.7822705 0.20192258 0.67101973 -0.20504853 -0.0014033786 0.090308614
-0.124224424 -0.1461766 -0.382741 -0.14629687 -0.39190242 0.24652675 -0.4407195 -0.24023534
-0.4016097 0.33164233 -0.35276878 -0.4211587 -0.5121888 -0.8880994 -0.564251 0.58789444
0.4052494 -0.120685905 0.20119958 0.38645813 0.4516839 0.91201353 0.21991695 -0.34728423
0.744814 0.31822526 -0.2366628 -0.27744454 0.45693964 -0.29235306 -0.04264923 0.21601039
0.63720405 0.21797623 -0.05882462 0.7015995 0.14666522 0.48075736 1.3752713 -0.43145424
00000000: 16fd db3e 3bc6 be3e 4343 8e3d 6361 69be
00000010: 48a0 183f 3e71 503e f7d6 0bbe f304 b9be
00000020: 408c eebe 02a3 25bf fde2 75bf 067d 00bf
00000030: bbb4 15bf 0a2e 2bbf 75b8 823d 987d fa3e
00000040: 287c cfbd 6ba3 d0be e142 48bf cbc4 4e3e
00000050: f3c7 2b3f 3ef8 51be 92f1 b7ba b9f3 b83d
00000060: 6069 febd 52af 15be a1f6 c3be d9ce 15be
00000070: 6fa7 c8be 8271 7c3e fca5 e1be 4100 76be
00000080: c99f cdbe 06cd a93e 1c9e b4be 1da2 d7be
00000090: ce1e 03bf 7b5a 63bf c172 10bf 4080 163f
000000a0: d97c cf3e 2c2a f7bd 4307 4e3e d7dd c53e
000000b0: 1d43 e73e b879 693f e931 613e 3dcf b1be
000000c0: 21ac 3e3f 6cee a23e bc57 72be 360d 8ebe
000000d0: fef3 e93e 4daf 95be f6b0 2ebd d431 5d3e
000000e0: ce1f 233f 2935 5f3e 16f2 70bd 069c 333f
000000f0: 682f 163e d425 f63e e408 b03f 92e7 dcbe

rnn_as_level.bias_ih_l3 f4 [8]
-0.4196963 0.09119088 0.2724918 -0.07809657 -0.42074102 -0.09686942 -0.19113441 -0.02784087
00000000: 6fe2 d6be 49c2 ba3d 0c84 8b3e 18f1 9fbd
00000010: 5e6b d7be 7963 c6bd bdb8 43be 8912 e4bc

rnn_as_level.bias_hh_l3 f4 [8]
-0.5193928 0.21906777 -0.33641982 -0.4045617 -0.16097103 0.22885379 -0.40715972 -0.23535566
00000000: edf6 04bf 4d53 603e 383f acbe b622 cfbe
00000010: 97d5 24be a658 6a3e 3d77 d0be 1301 71be

rnn_as_level.weight_ih_l4 f4 [8, 8]
-0.15866745 0.19566146 0.68489325 0.16385089 -0.1794307 0.048834078 -0.012117928 0.07895432
-0.112712815 0.46653304 -0.011681961 0.32566974 0.4036195 -0.5110677 0.5545333 -0.35274732
-0.2516167 0.15406695 0.3239491 -0.19088897 -0.119117126 0.25297603 -0.13940214 -0.10763671
-0.22745661 0.5580465 0.120905235 0.28610513 0.28624055 -0.10533949 0.23193233 -0.19951575
-0.15145949 0.29606614 0.5134433 0.686159 0.73638284 -0.41043478 0.31332105 -1.0351726
0.011325618 -0.27028224 -0.2912321 -0.5640744 -0.4861155 0.37458363 -0.36648324 0.77468497
0.4558799 0.33431512 -0.948588 1.092451 0.14324307 -0.026916318 0.75535446 -0.10965967
-0.295187 -0.8566676 -0.52857965 -0.29877666 -0.42837757 0.41423482 0.76483095 0.053877883
00000000: b879 22be 7a5b 483e 2a55 2f3f 87c8 273e
00000010: aebc 37be 3e06 483d 468a 46bc cdb2 a13d
00000020: fad5 e6bd 6bdd ee3e b265 3fbc 2fbe a63e
00000030: 37a7 ce3e 55d5 02bf e5f5 0d3f 4c9b b4be
00000040: e7d3 80be bac3 1d3e a8dc a53e 6678 43be
00000050: aef3 f3bd 1386 813e 6fbf 0ebe a370 dcbd
00000060: 63ea 68be 23dc 0e3f 2a9d f73d 5f7c 923e
00000070: 1f8e 923e 3bbc d7bd ab7f 6d3e db4d 4cbe
00000080: 3218 1bbe fb95 973e 0571 033f 1ea8 2f3f
00000090: 9683 3c3f 8224 d2be 9e6b a03e 8980 84bf
000000a0: 168f 393c 6f62 8abe 601c 95be 2e67 10bf
000000b0: 21e4 f8be 6dc9 bf3e b1a3 bbbe c151 463f
000000c0: 1769 e93e 5a2b ab3e aad6 72bf 6fd5 8b3f
000000d0: 50ae 123e 9c7f dcbc e95e 413f 4095 e0bd
000000e0: c022 97be 914e 5bbf ff50 07bf 41f9 98be
000000f0: 4e54 dbbe 9616 d43e f6cb 433f 0eaf 5c3d

rnn_as_level.weight_hh_l4 f4 [8, 8]
-0.4545563 0.19216116 -0.3097105 0.13052505 -0.21453868 -0.062468823 0.28792894 0.8754362
0.3890837 0.14875074 -0.12032359 0.24058469 -0.22272843 -0.34109744 0.17371449 -0.03642256
-0.2407812 0.49050122 -0.30047873 0.33448872 -0.21974298 0.11548639 0.27940103 0.19663201
0.23029469 0.08677592 0.17408809 -0.05748997 -0.33591622 0.04694793 -0.12799148 -0.051774547
-0.00015052845 -0.26648936 -0.20236924 -0.06990256 -0.5899038 -0.15939175 -0.7403356 -1.0245868
-0.32447875 0.46386835 0.2605643 -0.2016178 0.22897653 -0.1323031 0.76650137 -0.039412774
-0.10060945 -0.49197575 -0.13237566 -0.5524148 -0.110952094 0.13520889 0.06878951 0.23157492
0.2393473 -0.12707518 0.5103284 0.33628154 0.58555263 -0.5587669 0.10632394 -0.22239633
00000000: 9abb e8be e5c5 443e 6092 9ebe 5ca8 053e
00000010: 07b0 5bbe 4fdf 7fbd 6c6b 933e 961c 603f
00000020: fb35 c73e 1d52 183e 376c f6bd d55b 763e
00000030: ec12 64be 53a4 aebe 36e2 313e d32f 15bd
00000040: 598f 76be fa22 fb3e 59d8 99be 1b42 ab3e
00000050: 4e04 61be 2184 ec3d a70d 8f3e e759 493e
00000060: 5fd2 6b3e 93b7 b13d 2644 323e 9a7a 6bbd
00000070: 36fd abbe 794c 403d 3310 03be 8c11 54bd
00000080: 2cd7 1db9 4b71 88be e239 4fbe 1329 8fbd
00000090: ef03 17bf 9737 23be a286 3dbf a925 83bf
000000a0: 1422 a6be 2780 ed3e af68 853e e674 4ebe
000000b0: d378 6a3e 777a 07be 6f39 443f 4a6f 21bd
000000c0: 540c cebd 3fe4 fbbe 7c8d 07be 0e6b 0dbf
000000d0: da3a e3bd 3374 0a3e 84e1 8c3d fa21 6d3e
000000e0: 7517 753e ff1f 02be e2a4 023f 182d ac3e
000000f0: c7e6 153f 590b 0fbf 5ec0 d93d ddbb 63be

rnn_as_level.bias_ih_l4 f4 [8]
0.15487148 -0.2908125 -0.30073452 0.16096531 -0.03169198 0.07076932 0.1484334 0.023181614
00000000: a196 1e3e 60e5 94be e0f9 99be 17d4 243e
00000010: 73cf 01bd 81ef 903d edfe 173e 5ee7 bd3c

rnn_as_level.bias_hh_l4 f4 [8]
-0.020746864 -0.10332859 -0.2853754 0.005907314 0.17721419 0.26617172 -0.15968369 0.023131391
00000000: 54f5 a9bc f19d d3bd b91c 92be 2492 c13b
00000010: a377 353e a947 883e 1f84 23be 0b7e bd3c

rnn_as_level.weight_ih_l5 f4 [8, 8]
-0.070926934 0.46738768 -0.24328656 0.18247044 0.26816913 -0.21582069 0.17805877 -0.43932897
-0.22791235 0.38112998 -0.10597716 0.075541936 0.17908832 0.014037394 -0.101841636 -0.25974953
-0.25477406 0.19323258 -0.23078145 0.26533395 0.21436718 -0.34807274 0.35719654 -0.22577016
0.16472955 0.30347964 0.37245518 -0.08462973 0.37043822 -0.05228472 0.10148961 0.14578708
-0.0010447591 0.08603797 -0.101854295 -0.47611758 0.06414462 0.06991271 -0.012560589 0.5177182
-0.41904065 0.19339299 -0.048707537 -0.12140771 -0.39978802 0.11504904 -0.22194844 -0.36353245
-0.0692159 -0.44339964 -0.2990161 -0.039081093 -0.26566842 0.48175502 -0.6487345 0.1539044
0.13345602 -0.07983269 0.106516644 -0.28590083 -0.42101943 0.28058466 -0.28570586 0.2928177
00000000: 2442 91bd 704d ef3e 1d20 79be 88d9 3a3e
00000010: 774d 893e 1900 5dbe 0a55 363e baef e0be
00000020: db61 69be 7823 c33e 8e0a d9bd bbb5 9a3d
00000030: ee62 373e 19fd 653c 5992 d0bd e4fd 84be
00000040: bf71 82be c3de 453e f951 6cbe dad9 873e
00000050: 1283 5b3e 9736 b2be 77e2 b63e 4b30 67be
00000060: ddae 283e af61 9b3e 72b2 be3e 5a52 adbd
00000070: 14aa bd3e 8128 56bd c9d9 cf3d 3549 153e
00000080: 4cf0 88ba ad34 b03d fc98 d0bd afc5 f3be
00000090: 415e 833d 652e 8f3d eeca 4dbc 2e89 043f
000000a0: 7f8c d6be d008 463e 8e81 47bd 9ba4 f8bd
000000b0: 04b1 ccbe d59e eb3d 7446 63be ed20 babe
000000c0: 11c1 8dbd 4705 e3be a318 99be 7f13 20bd
000000d0: b105 88be 98a8 f63e 7713 26bf 1d99 1d3e
000000e0: b2a8 083e 527f a3bd 6625 da3d 9861 92be
000000f0: dc8f d7be cba8 8f3e 0a48 92be 34ec 953e

rnn_as_level.weight_hh_l5 f4 [8, 8]
0.07893161 -0.18139385 -0.5882341 -0.23574923 0.49381176 -0.21664418 0.048554014 -0.4533817
-0.2656146 0.2672402 -0.21125892 0.14916694 0.42138612 -0.24267857 -0.15790738 0.1550651
-0.0342569 0.061921217 -0.5300921 0.0049432404 0.21051148 0.28908557 0.4251124 0.23120527
-0.27781782 -0.07196997 -0.11602772 -0.20781961 -0.57023704 -0.11213892 0.40227303 -0.16512209
0.50321716 0.1614228 0.6281574 0.52539384 -0.26496124 -0.31301987 -0.2908986 -0.05251983
0.20372346 0.17355211 0.39859927 0.18660784 -0.52159065 0.42614606 0.2402045 0.21137203
-0.119266085 0.07841347 -0.007865141 -0.11841988 0.4792162 0.19902875 -0.32744625 0.57547814
0.25924784 0.038242277 0.018846443 0.11546802 -0.19186692 -0.52658075 -0.02781671 -0.18120515
00000000: e5a6 a13d 4fbf 39be 8396 16bf 3f68 71be
00000010: e5d4 fc3e f9d7 5dbe 93e0 463d a521 e8be
00000020: a3fe 87be b5d3 883e 4254 58be 38bf 183e
00000030: ecbf d73e bb80 78be 79b2 21be 63c9 1e3e
00000040: f750 0cbd 1aa1 7d3d 1eb4 07bf e8fa a13b
00000050: 5290 573e 0603 943e 55a8 d93e 13c1 6c3e
00000060: 233e 8ebe fe64 93bd f19f edbd aace 54be
00000070: 0efb 11bf 17a9 e5bd bbf6 cd3e c415 29be
00000080: d7d2 003f 054c 253e ecce 203f 3680 063f
00000090: 00a9 87be 2444 a0be a9f0 94be 091f 57bd
000000a0: e29c 503e a5b7 313e 3415 cc3e 2016 3f3e
000000b0: f786 05bf d12f da3e 2bf8 753e e971 583e
000000c0: c741 f4bd 3e97 a03d cbdc 00bc 1f86 f2bd
000000d0: d35b f53e 31ce 4b3e 09a7 a7be 8952 133f
000000e0: 22bc 843e efa3 1c3d db63 9a3c 7f7a ec3d
000000f0: c378 44be ffcd 06bf dedf e3bc d88d 39be

rnn_as_level.bias_ih_l5 f4 [8]
0.20740423 0.03757638 -0.019324008 0.14696814 0.17460777 0.030287035 -0.06971609 0.26825738
00000000: c661 543e b1e9 193d 624d 9ebc d17e 163e
00000010: 61cc 323e 841c f83c 4fc7 8ebd 0859 893e

rnn_as_level.bias_hh_l5 f4 [8]
0.1882954 -0.22664511 -0.43774444 -0.36962515 -0.16112052 -0.06992262 -0.09022115 0.27392045
00000000: 82d0 403e a815 68be 0a20 e0be 823f bdbe
00000010: c7fc 24be 9733 8fbd dec5 b8bd 4d3f 8c3e

rnn_as_level.weight_ih_l6 f4 [8, 8]
0.16611391 -0.05570598 -0.46547586 -0.2635969 -0.107995346 -0.24395229 -0.09198092 0.22361597
0.25239548 0.05082082 0.16863346 -0.0013272236 -0.23996651 0.26288626 0.17200501 -0.12284688
-0.2685041 -0.19385763 -0.32462022 -0.09146369 0.019944208 -0.09198664 0.016956829 -0.24350713
-0.13792275 0.047643352 0.004411563 -0.22203627 -0.51473886 0.1836149 0.26963192 -0.047830146
-0.10535902 0.06605386 -0.17626767 0.18171553 0.27376807 -0.49873102 -0.24256057 -0.20955616
-0.17686176 0.0636538 -0.19694826 -0.04655221 -0.11995448 -0.17178312 0.41660568 -0.40714547
0.3162287 -0.044635125 0.37165475 -0.34666103 0.15303297 -0.1406026 -0.14933123 0.14905022
0.1808639 0.045851562 -0.19326952 -0.31883428 -0.24789411 0.06311206 0.1006139 0.48146546
00000000: c419 2a3e f42b 64bd da52 eebe 2cf6 86be
00000010: aa2c ddbd a1ce 79be 7e60 bcbd 96fb 643e
00000020: fb39 813e 7e29 503d 40ae 2c3e 3cf6 adba
00000030: c8b9 75be 0799 863e 1522 303e 2597 fbbd
00000040: 5f79 89be 9d82 46be 9f34 a6be 5151 bbbd
00000050: 0962 a33c 7e63 bcbd 0ce9 8a3c ef59 79be
00000060: 9f3b 0dbe ad25 433d df8e 903b 7a5d 63be
00000070: edc5 03bf 8b05 3c3e 320d 8a3e 8be9 43bd
00000080: 78c6 d7bd 3f47 873d 837f 34be a313 3a3e
00000090: 542b 8c3e ac59 ffbe cc61 78be e495 56be
000000a0: 401b 35be ec5c 823d ceac 49be 88ad 3ebd
000000b0: b2aa f5bd eae7 2fbe 574d d53e 5f75 d0be
000000c0: bae8 a13e 52d3 36bd 8849 be3e 8e7d b1be
000000d0: adb4 1c3e 21fa 0fbe 49ea 18be 9fa0 183e
000000e0: 6334 393e d9ce 3b3d 72e8 45be 3f3e a3be
000000f0: f4d7 7dbe e540 813d a90e ce3d a482 f63e

rnn_as_level.weight_hh_l6 f4 [8, 8]
0.41344127 0.24509051 0.260353 -0.57381946 -0.7208863 -0.1296263 0.28512985 -0.15260604
0.06395011 0.26905456 0.01782624 0.018867265 0.25957853 0.74287474 0.3211495 0.2774919
-0.60080856 0.12356394 -0.3226584 -0.39408106 0.063749194 0.11910617 0.33600295 0.25318742
0.45453316 -0.1902554 -0.16528054 0.18547647 -0.16060841 -0.24750154 0.1425284 0.6873093
0.3417582 -0.5634955 0.053658027 0.27369505 0.2703578 -0.052581754 -0.18376102 -0.4652225
-0.035918444 -0.5441651 -0.16318634 -0.5929814 0.1492409 -0.28764322 0.238297 0.54575443
-0.0669762 0.08789055 0.11524914 -0.33673593 0.3261803 -0.22746114 0.16019097 0.08858353
0.47997725 -0.102477424 -0.2952798 -0.5226763 0.3878225 -0.3541018 -0.0629115 0.22349112
00000000: 93ae d33e 02f9 7a3e fd4c 853e d5e5 12bf
00000010: 018c 38bf c2bc 04be 8afc 913e c244 1cbe
00000020: 46f8 823d 85c1 893e 5608 923c 868f 9a3c
00000030: 7ae7 843e 0a2d 3e3f b56d a43e 6b13 8e3e
00000040: 97ce 19bf 170f fd3d 7b33 a5be fec4 c9be
00000050: f08e 823d f0ed f33d 9408 ac3e c8a1 813e
00000060: 92b8 e83e 50d2 42be 4d3f 29be 8bed 3d3e
00000070: 8876 24be 0b71 7dbe f7f2 113e 81f3 2f3f
00000080: eefa ae3e 3e41 10bf 85c8 5b3d c221 8c3e
00000090: 566c 8a3e f75f 57bd d92b 3cbe a531 eebe
000000a0: 381f 13bd 674e 0bbf 521a 27be a1cd 17bf
000000b0: 9bd2 183e f945 93be 2104 743e 90b6 0b3f
000000c0: d12a 89bd f6ff b33d be07 ec3d a768 acbe
000000d0: 1b01 a73e 93eb 68be 1a09 243e 486b b53d
000000e0: 94bf f53e afdf d1bd ea2e 97be 1dce 05bf
000000f0: ac90 c63e d54c b5be bfd7 80bd dbda 643e

rnn_as_level.bias_ih_l6 f4 [8]
-0.051417626 -0.1410406 0.10589556 0.07756703 0.13239546 -0.0122674825 0.2894238 -0.17732735
00000000: 4a9b 52bd f26c 10be c5df d83d 77db 9e3d
00000010: ad92 073e 8dfd 48bc 5b2f 943e 4d95 35be

rnn_as_level.bias_hh_l6 f4 [8]
-0.18041669 0.08277938 0.29355448 -0.35609064 -0.01271745 -0.048298854 -0.03287888 0.3060942
00000000: 27bf 38be 3c88 a93d c64c 963e 8351 b6be
00000010: da5c 50bc 05d5 45bd 01ac 06bd 61b8 9c3e

rnn_as_level.weight_ih_l7 f4 [8, 8]
-0.025244942 0.02273727 -0.0973903 -0.29074454 -0.062674545 0.08063411 0.22142883 0.009567621
-0.15218686 0.051439222 -0.063717246 0.22994614 0.11286774 -0.07426 -0.24651301 0.1763042
0.3958835 0.08705174 -0.22210924 0.20617074 0.042910222 0.010596687 -0.06799546 0.010182824
0.34614822 -0.11654046 0.2889095 -0.17695443 0.11458193 0.31549978 0.04555317 0.30296773
0.084073715 0.027913248 -0.14418142 -0.09759023 0.028757209 0.023175294 -0.23638405 -0.052682128
-0.069473386 0.02504201 -0.0117641855 0.19908164 -0.21526784 -0.06845672 -0.2849307 0.122113146
-0.21371914 -0.007897843 0.20273414 0.20379113 -0.102990665 -0.05480872 0.1205695 0.045197096
-0.08538664 -0.17213373 -0.13969345 -0.04890645 -0.17005089 0.15061644 -0.039661366 0.13456129
00000000: 7bce cebc 8343 ba3c 9174 c7bd 78dc 94be
00000010: 835b 80bd 7f23 a53d 3dbe 623e 83c1 1c3c
00000020: dfd6 1bbe efb1 523d 307e 82bd 0077 6b3e
00000030: 3427 e73d a015 98bd e86d 7cbe 1789 343e
00000040: 3eb1 ca3e 2f48 b23d 9b70 63be 6c1e 533e
00000050: a1c2 2f3d ba9d 2d3c 3441 8bbd dcd5 263c
00000060: 573a b13e c4ac eebd f2eb 933e 8b33 35be
00000070: eea9 ea3d 3089 a13e f695 3a3d 961e 9b3e
00000080: d72e ac3d 53aa e43c 4ba4 13be 63dd c7bd
00000090: 3d94 eb3c 1dda bd3c a90e 72be 37c9 57bd
000000a0: 1048 8ebd e724 cd3c 92be 40bc 0fdc 4b3e
000000b0: 2c6f 5cbe 0933 8cbd 70e2 91be 7516 fa3d
000000c0: 31d9 5abe f465 01bc 8a99 4f3e 9fae 503e
000000d0: c5ec d2bd 1c7f 60bd 24ed f63d 9720 393d
000000e0: 31df aebd d343 30be cd0b 0fbe 2152 48bd
000000f0: d221 2ebe 323b 1a3e f573 22bd 6fca 093e

rnn_as_level.weight_hh_l7 f4 [8, 8]
0.056120936 -0.08003884 -0.25634983 -0.127165 0.38307643 -0.13590166 -0.11287765 0.106242605
0.03203364 -0.102788806 0.30392647 0.047353264 -0.21167564 0.16997494 0.09404468 0.1407398
-0.02997926 -0.2303438 0.30459255 0.17705321 -0.13349108 0.0650158 0.30277458 0.7857219
-0.0008256517 0.11632695 0.2264779 -0.13333595 -0.10160169 -0.48430088 0.16421215 -0.11749205
-0.14542721 -0.2062267 -0.42883918 0.05624925 0.19165757 0.26218134 -0.33801112 0.01669204
-0.04954143 0.1667848 0.186919 0.40621912 -0.21374775 0.15612242 0.10734994 -0.24738383
0.3007335 -0.13749269 -0.1812272 -0.0458861 0.18827724 -0.121444374 0.28542134 0.38569042
0.2936284 -0.23313706 -0.44427732 0.36519986 -0.416202 -0.30718288 0.30822784 0.030678416
00000000: 11df 653d 67eb a3bd 4940 83be 8b37 02be
00000010: 9822 c43e ce29 0bbe 662c e7bd b995 d93d
00000020: b535 033d f082 d2bd 409c 9b3e 7ff5 413d
00000030: 80c1 58be e90d 2e3e 7f9a c03d 181e 103e
00000040: 1197 f5bc 3fdf 6bbe 8ef3 9b3e 704d 353e
00000050: e3b1 08be 0127 853d 4505 9b3e 1225 493f
00000060: 8c70 58ba d33c ee3d d3e9 673e 3889 08be
00000070: 8c14 d0bd 49f6 f7be 3b27 283e ac9f f0bd
00000080: dfea 14be 182d 53be cf90 dbbe 9d65 663d
00000090: e241 443e a23c 863e cb0f adbe bfbd 883c
000000a0: f4eb 4abd a2c9 2a3e b267 3f3e f4fb cf3e
000000b0: b1e0 5abe 8ede 1f3e 49da db3d 3052 7dbe
000000c0: bef9 993e e2ca 0cbe a093 39be 10f3 3bbd
000000d0: c0cb 403e d4b7 f8bd bf22 923e 3779 c53e
000000e0: 7656 963e 7bbb 6ebe 5178 e3be 7afb ba3e
000000f0: 6e18 d5be 1347 9dbe 0ad0 9d3e 4d51 fb3c

rnn_as_level.bias_ih_l7 f4 [8]
-0.07125467 0.39018622 0.018085815 -0.2622948 -0.00853482 0.23446906 0.16374317 0.22486311
00000000: f8ed 91bd 7dc6 c73e b428 943c 814b 86be
00000010: a1d5 0bbc a818 703e 4aac 273e 8442 663e

rnn_as_level.bias_hh_l7 f4 [8]
-0.035305973 -0.20068015 0.124557935 0.054865852 -0.036020204 -0.02852178 -0.13922273 -0.0255602
00000000: ff9c 10bd 197f 4dbe 3b18 ff3d 04bb 603d
00000010: ec89 13bd 82a6 e9bc 6790 0ebe a063 d1bc

rnn_link_level.weight_ih_l0 f4 [8, 6]
0.19208929 0.18117858 -0.5820154 0.15042609 -1.5543985 0.83134073 -0.24136227 0.3298131
-0.55059963 -0.028219307 0.65593916 -2.0514007 0.32103354 0.12275401 -0.52743465 0.009221146
-1.3897836 -2.1507807 0.32398173 -0.21288164 -0.8031169 0.28093055 -0.36059928 -1.8563224
0.17936377 0.6382048 -0.1314437 0.4008073 3.343386 1.3196847 -1.2350397 -0.2043887
0.5175755 -0.91210943 0.6247777 0.086460724 -0.04338812 -0.30684215 0.19378169 1.2984064
0.4678157 -0.98845893 -0.07902495 -0.7708481 0.2840137 -0.2579129 0.77269125 2.252107
00000000: 0eb3 443e e186 393e f6fe 14bf 4c09 1a3e
00000010: 88f6 c6bf bfd2 543f ac27 77be 43dd a83e
00000020: 19f4 0cbf 2d2c e7bc a1eb 273f 264a 03c0
00000030: 825e a43e 7466 fb3d f505 07bf 4a14 173c
00000040: 6ee4 b1bf 64a6 09c0 efe0 a53e a5fd 59be
00000050: 1299 4dbf 21d6 8f3e 78a0 b8be f99b edbf
00000060: 23ab 373e 6461 233f 2d99 06be 9d36 cd3e
00000070: 09fa 5540 6eeb a83f c815 9ebf 454b 51be
00000080: d47f 043f 0180 69bf 6ef1 1f3f 5212 b13d
00000090: beb7 31bd 6a1a 9dbe b56e 463e 2e32 a63f
000000a0: 8a85 ef3e a50b 7dbf d5d7 a1bd 4d56 45bf
000000b0: 3e6a 913e 290d 84be 18cf 453f 8522 1040

rnn_link_level.weight_hh_l0 f4 [8, 8]
0.22421545 -0.23449002 0.020963807 -0.031503297 -0.21564016 -0.06297536 0.5599022 -0.09276768
-0.65322584 0.13678809 0.3044078 -0.5847212 -0.64591503 0.62815166 0.16365817 0.47314644
0.28850356 -0.34910226 0.56869334 0.4014566 0.08797578 -0.003563069 -0.32020384 -0.5598384
-0.055363547 -0.20020576 0.3109401 0.44805908 0.080244176 -0.006790691 -0.2569726 -0.05880298
0.041321356 -0.13856831 -0.21888696 -0.63029367 -0.11182768 0.28773436 -0.7734942 -0.57187027
-0.07808058 0.059430704 -0.11032029 0.041532267 0.34783575 0.18890892 -0.021472724 0.3193546
0.42316163 0.19341847 0.26678637 -0.78623146 -0.15272869 0.1503837 -0.1149885 -0.08546856
-0.17418411 0.04804109 -0.16262949 -0.02922035 -0.8779137 -0.5221959 -0.3112104 0.3640289
00000000: bc98 653e 271e 70be 4abc ab3c 9a09 01bd
00000010: c6d0 5cbe 3af9 80bd c055 0f3f fbfc bdbd
00000020: cf39 27bf 2d12 0c3e 57db 9b3e 4ab0 15bf
00000030: b05a 25bf 8cce 203f 0296 273e 4040 f23e
00000040: bdb6 933e 88bd b2be e395 113f b88b cd3e
00000050: a52c b43d 6182 69bb c2f1 a3be 9251 0fbf
00000060: e3c4 62bd bd02 4dbe 8a33 9f3e 0068 e53e
00000070: 0f57 a43d 7284 debb ea91 83be 65db 70bd
00000080: 9540 293d dae4 0dbe e723 60be ed5a 21bf
00000090: e905 e5bd eb51 933e b703 46bf 1766 12bf
000000a0: b6e8 9fbd 9c6d 733d 9bef e1bd bd1d 2a3d
000000b0: 8717 b23e 5771 413e 91e7 afbc 7282 a33e
000000c0: a4a8 d83e 7e0f 463e 3998 883e 7746 49bf
000000d0: e964 1cbe 2ffe 193e 177f ebbd 240a afbd
000000e0: 525d 32be bcc6 443d 5888 26be 845f efbc
000000f0: f4be 60bf a1ae 05bf f856 9fbe ff61 ba3e

rnn_link_level.bias_ih_l0 f4 [8]
0.2914833 0.16703701 0.18637949 0.3190665 -0.07962738 0.2425355 -0.1493884 -0.38060123
00000000: 4d3d 953e c00b 2b3e 44da 3e3e af5c a33e
00000010: ae13 a3bd 3a5b 783e 46f9 18be 2ade c2be

rnn_link_level.bias_hh_l0 f4 [8]
-0.10872362 -0.46996185 -0.23767379 -0.105738595 -0.042963576 -0.2086637 0.060410075 -0.4967017
00000000: 7daa debd d79e f0be c260 73be 7a8d d8bd
00000010: 93fa 2fbd f0ab 55be 8e70 773d af4f febe

rnn_link_level.weight_ih_l1 f4 [8, 8]
-1.2678494 0.15153754 -0.17136414 0.60237515 0.4640904 0.97028714 -0.020867512 -0.21953584
-0.63467854 -0.041701846 -0.58376545 -0.004590449 0.27089313 0.24229588 0.1593908 0.31053895
0.2506608 -0.22508721 -0.46372166 -0.23686999 -0.35890874 0.29621983 0.12725888 0.13374639
0.344758 0.49014074 0.82196647 0.671345 0.07923726 -0.14584759 -0.08643788 0.2601045
0.05795527 -0.3111709 -0.6193068 0.11332078 -0.8574515 0.111265175 -0.62146336 0.15102886
0.5576172 -0.4476873 0.55644995 0.898741 0.29915255 -0.53019774 0.0036619748 -0.14807679
-0.7852125 0.26721615 -0.48207304 -0.7718055 -0.046164338 1.2297616 -0.29026985 -0.37008584
-0.42746153 -0.3079315 -0.29103976 -0.46796903 1.0819964 -0.7313211 0.19481355 0.37740183
00000000: e448 a2bf a82c 1b3e 157a 2fbe 4235 1a3f
00000010: 429d ed3e bd64 783f 58f2 aabc 01ce 60be
00000020: 4b7a 22bf 8ecf 2abd a771 15bf 7a6b 96bb
00000030: 81b2 8a3e 691c 783e 5837 233e f6fe 9e3e
00000040: 9d56 803e 437d 66be ed6c edbe 0c8e 72be
00000050: e3c2 b7be 20aa 973e 2750 023e d0f4 083e
00000060: 1f84 b03e baf3 fa3e 656c 523f 44dd 2b3f
00000070: 2547 a23d 1259 15be 5806 b1bd 6b2c 853e
00000080: 8162 6d3d cb51 9fbe e48a 1ebf ba14 e83d
00000090: f181 5bbf ffde e33d 3918 1fbf 4fa7 1a3e
000000a0: 00c0 0e3f 4537 e5be 8173 0e3f e413 663f
000000b0: 862a 993e 0abb 07bf befd 6f3b 71a1 17be
000000c0: b003 49bf 8ed0 883e 47d2 f6be 0c95 45bf
000000d0: d116 3dbd d468 9d3f 409e 94be e47b bdbe
000000e0: 3ddc dabe 33a9 9dbe 2a03 95be a399 efbe
000000f0: dc7e 8a3f dc37 3bbf 347d 473e d03a c13e

rnn_link_level.weight_hh_l1 f4 [8, 8]
-0.7228684 -0.31339684 0.12978792 0.18890478 -0.0034462006 0.733747 -1.1697273 -0.3424337
0.2576686 0.20064938 0.55920666 -0.09463051 0.05212313 -0.49512377 0.5626514 -0.40017003
0.28885874 -0.24044402 -0.24949516 0.12770166 -0.41645944 -0.007724646 -0.40612584 -0.4675079
-0.8588292 0.28112262 0.107023604 -0.5773389 0.19763921 0.12869295 -0.15031612 -0.052370735
0.4538432 -0.2709938 0.1630727 0.083689794 0.25989997 0.06927207 -0.526603 0.13214669
-0.095554434 0.10415718 -0.0915916 0.062192857 0.049540333 0.44416845 -0.21349998 0.80216247
0.012566948 -0.50681996 -0.15645824 0.34215602 -0.24553986 -0.45021164 0.14916958 -0.23002066
0.2297076 -0.01284711 0.49404287 -0.2909796 0.48600796 -0.3602815 0.22400004 0.08153441
00000000: e70d 39bf 8d75 a0be 20e7 043e 4170 413e
00000010: a7d9 61bb d8d6 3b3f a0b9 95bf 7853 afbe
00000020: 24ed 833e 0877 4d3e 2b28 0f3f a4cd c1bd
00000030: 107f 553d dd80 fdbe ec09 103f 16e3 ccbe
00000040: 4be5 933e f536 76be a97b 7fbe 39c4 023e
00000050: 2c3a d5be 071f fdbb baef cfbe 325d efbe
00000060: 3bdc 5bbf 4eef 8f3e 312f db3d 7bcc 13bf
00000070: ef61 4a3e 16c8 033e 78ec 19be b282 56bd
00000080: 235e e83e b3bf 8abe 88fc 263e 8e65 ab3d
00000090: 9c11 853e 84de 8d3d 74cf 06bf 7651 073e
000000a0: 0bb2 c3bd 5c50 d53d 6094 bbbd f0bd 7e3d
000000b0: ceea 4a3d 0c6a e33e bd9f 5abe 855a 4d3f
000000c0: 9ae5 4d3c f4be 01bf 9736 20be 132f af3e
000000d0: cd6e 7bbe 2482 e6be e9bf 183e 898a 6bbe
000000e0: 7838 6b3e af7c 52bc 30f3 fc3e 47fb 94be
000000f0: 09d6 f83e d176 b8be 4460 653e 83fb a63d

rnn_link_level.bias_ih_l1 f4 [8]
-0.111317575 -0.15032628 -0.021197151 -0.041392602 0.105261035 0.014616144 -0.02292519 0.4729854
00000000: 78fa e3bd 22ef 19be a6a5 adbc 4a8b 29bd
00000010: 1993 d73d 8d78 6f3c 9ccd bbbc 242b f23e

rnn_link_level.bias_hh_l1 f4 [8]
-0.27835038 0.27818558 0.21274352 0.021931712 0.059996884 0.26137888 0.24079596 -0.009999544
00000000: f183 8ebe 576e 8e3e 70d9 593e 22aa b33c
00000010: 4bbf 753d 74d3 853e 3793 763e 21d5 23bc

rnn_link_level.weight_ih_l2 f4 [8, 8]
-1.6749583 -0.21226402 0.07850745 -0.24758299 -0.018476395 -0.5136078 0.14312162 0.15654752
-0.018286202 0.21700832 0.31812578 -0.60743755 -0.48465085 -0.32064587 0.9252754 0.2574954
-0.560151 1.1400526 -0.46252102 0.1920634 -0.19851498 -0.58085316 0.1650953 0.12271187
0.48945713 -0.15722038 -0.33997375 0.694854 0.30641583 0.73612505 -0.71471083 -0.013465031
-0.7676123 0.2787425 -0.64437705 0.06556671 -0.5783868 -0.36404216 -0.07957099 0.86473626
0.33628264 -0.65154517 0.17977594 0.54636526 0.070213154 0.40855744 -0.8728842 -0.27590415
0.44878438 0.33735165 0.47185582 -0.9499767 0.45091686 -0.7281822 1.4053361 -0.24379057
0.5253902 -0.5264614 -0.50793755 1.3193697 -0.014896745 1.2033566 -0.6120156 0.08863749
00000000: 0965 d6bf bd5b 59be 84c8 a03d 6586 7dbe
00000010: cf5b 97bc cd7b 03bf 798e 123e fe4d 203e
00000020: f2cc 95bc 6e37 5e3e 62e1 a23e 0781 1bbf
00000030: 2824 f8be b22b a4be d9de 6c3f 70d6 833e
00000040: 0e66 0fbf 3eed 913f 8ecf ecbe 45ac 443e
00000050: 8347 4bbe cbb2 14bf be0e 293e 5c50 fb3d
00000060: 209a fa3e 61fe 20be 0a11 aebe f4e1 313f
00000070: 89e2 9c3e b172 3c3f 4af7 36bf 6f9c 5cbc
00000080: 3d82 44bf 56b7 8e3e e5f5 24bf d747 863d
00000090: 2811 14bf bc63 babe 1df6 a2bd 5b5f 5d3f
000000a0: 3d2d ac3e aacb 26bf 2f17 383e 98de 0b3f
000000b0: eacb 8f3d 712e d13e 5775 5fbf 4f43 8dbe
000000c0: 11c7 e53e 5bb9 ac3e 1697 f13e ac31 73bf
000000d0: 93de e63e 266a 3abf 0ee2 b33f 3ca4 79be
000000e0: f97f 063f 2dc6 06bf 3208 02bf 1be1 a83f
000000f0: 7a11 74bc 9707 9a3f 0ead 1cbf 9387 b53d

rnn_link_level.weight_hh_l2 f4 [8, 8]
0.26204327 0.7797214 0.23968744 0.069310665 -0.007296041 -0.525454 0.18898585 -0.034101598
0.48475942 -0.26011273 0.3445906 -0.5016517 0.17790805 0.08595877 -0.23546785 -0.59004414
0.04544028 0.73706234 -0.26451308 -0.47773156 -0.20723668 -0.018182226 0.5675452 -0.35828915
0.15642515 -0.0937647 0.110816926 -0.02242263 -0.05416074 0.384063 -0.6990345 0.6863285
-0.043885734 -0.12715821 -0.5424357 0.38815063 0.032955594 -0.16798611 0.12289994 0.06208294
0.2656658 -0.35677183 -0.39072084 -0.1713934 0.16076535 0.69137716 -0.5040803 -0.020194743
-0.77574056 -0.22296481 -0.4715906 0.6177256 -0.11605704 0.9291037 0.2573378 0.657947
0.78068453 -0.4193616 -0.24432568 0.463289 0.6667976 0.4181229 -1.0840808 0.9859751
00000000: 892a 863e d29b 473f a070 753e c0f2 8d3d
00000010: a113 efbb 2784 06bf 8285 413e 1eae 0bbd
00000020: 6332 f83e 7f2d 85be 2e6e b03e 3f6c 00bf
00000030: 872d 363e 270b b03d 7c1e 71be 220d 17bf
00000040: 961f 3a3d 1eb0 3c3f 426e 87be 3b99 f4be
00000050: da35 54be e4f2 94bc a44a 113f ad71 b7be
00000060: ea2d 203e b507 c0bd fcf3 e23d aaaf b7bc
00000070: a7d7 5dbd e8a3 c43e edf3 32bf 39b3 2f3f
00000080: 87c1 33bd c335 02be 11dd 0abf aebb c63e
00000090: 72fc 063d 8d04 2cbe f7b2 fb3d ae4a 7e3d
000000a0: 5905 883e ccaa b6be 900c c8be c081 2fbe
000000b0: ac9f 243e 18fe 303f 680b 01bf 726f a5bc
000000c0: ef96 46bf e350 64be 5374 f1be 4423 1e3f
000000d0: 50af edbd bdd9 6d3f c8c1 833e 376f 283f
000000e0: f1da 473f 90b6 d6be 8330 7abe 3734 ed3e
000000f0: 3fb3 2a3f 3414 d63e 29c3 8abf dd68 7c3f

rnn_link_level.bias_ih_l2 f4 [8]
0.19507459 0.09828601 -0.21378364 0.33773047 0.3738267 0.15837502 0.17607331 0.3334224
00000000: a2c1 473e 2d4a c93d 19ea 5abe 02eb ac3e
00000010: 3766 bf3e 102d 223e 904c 343e 57b6 aa3e

rnn_link_level.bias_hh_l2 f4 [8]
0.3596278 -0.19909358 0.053807188 0.58547455 0.16297479 -0.35761967 0.117975175 0.33784705
00000000: 2321 b83e 30df 4bbe ed64 5c3d a9e1 153f
00000010: dde2 263e ed19 b7be f89c f13d 4afa ac3e

rnn_link_level.weight_ih_l3 f4 [8, 8]
-0.7623357 0.104929686 -0.49375007 -0.009688549 -0.90411335 0.061374523 0.3494225 -0.2140506
-0.030198354 -0.5339911 0.30277276 0.23261963 -0.033102162 -0.093285754 -0.77210295 -0.25182208
0.17377315 -0.2021234 -0.07409322 0.28042915 -0.55118036 0.4597211 0.34556 -0.013737417
-0.20683457 0.39768356 -0.5597694 0.020162303 -0.08517254 -0.43841156 0.5390897 -0.057273403
0.005045845 0.27391732 0.072676115 -0.09108941 -0.53888494 0.40044135 -0.736907 0.13537247
0.028438326 0.015905948 0.41725707 0.13322876 0.17003767 -0.57179 0.9760118 0.21602507
0.08229294 -0.48812002 -0.75083035 0.9947271 -0.15251468 0.99787426 0.3442792 1.4984912
0.5752156 -0.5635012 0.06478303 0.00081962306 0.45791835 0.14483948 -0.25716487 -0.3421176
00000000: 6f28 43bf 60e5 d63d cfcc fcbe b8bc 1ebc
00000010: f973 67bf da63 7b3d 82e7 b23e 1530 5bbe
00000020: 8a62 f7bc a4b3 08bf 0805 9b3e d733 6e3e
00000030: 2296 07bd 9a0c bfbd 8aa8 45bf d3ee 80be
00000040: 97f1 313e 70f9 4ebe 30be 97bd 6994 8f3e
00000050: 281a 0dbf 9060 eb3e 3eed b03e e712 61bc
00000060: 71cc 53be 2e9d cb3e 0c4d 0fbf 6a2b a53c
00000070: f16e aebd 7b77 e0be c801 0a3f 8497 6abd
00000080: 9e57 a53b e43e 8c3e 37d7 943d 168d babd
00000090: 5df4 09bf a606 cd3e f0a5 3cbf 159f 0a3e
000000a0: 7ef7 e83c 314d 823c b8a2 d53e 1f6d 083e
000000b0: 5b1e 2e3e d460 12bf e9db 793f ad35 5d3e
000000c0: 3389 a83d deea f9be 6b36 40bf 6fa6 7e3f
000000d0: cf2c 1cbe b074 7f3f 5d45 b03e 8fce bf3f
000000e0: 5441 133f 9d41 10bf f7ac 843d f9db 563a
000000f0: 4674 ea3e cd50 143e 1dab 83be 0a2a afbe

rnn_link_level.weight_hh_l3 f4 [8, 8]
-0.33151975 0.25934175 -0.5420238 0.60655934 -0.16955659 -0.24289618 0.103764154 0.1973013
-0.333717 0.32525185 -0.006154564 -0.371109 0.38515654 -0.44823807 -0.22409274 0.08110813
0.054283675 -0.15885183 -0.05155021 0.0151292365 1.4828967 0.053687416 -0.11384652 -0.16002019
-0.9398353 -0.16437018 0.0012903281 -0.27420983 -0.51341164 -0.326631 0.29549026 0.802236
-0.10319987 -0.47672296 -1.1419361 1.3116568 0.32003626 0.12967253 -0.08752967 -0.2555103
-0.37711683 0.12903921 -0.2110515 -0.80208445 -0.5442172 0.00041802233 0.93783313 -0.33695358
-0.23208292 0.078012735 -0.027676867 0.12344563 -0.32338947 -0.7452818 0.6068492 -0.36914113
-0.29812366 0.09906148 -0.16794904 -0.6750208 0.46640593 -0.15680024 -0.95347077 0.03717296
00000000: f5bc a9be 71c8 843e 12c2 0abf 7947 1b3f
00000010: 3ea0 2dbe c7b9 78be 4d82 d43d 5a09 4a3e
00000020: f4dc aabe 6987 a63e 3aac c9bb 0002 bebe
00000030: 3d33 c53e 767f e5be 9178 65be 051c a63d
00000040: 8f58 5e3d 0eaa 22be 5026 53bd 9ee0 773c
00000050: 8fcf bd3f 56e7 5b3d 5d28 e9bd 55dc 23be
00000060: 0c99 70bf a850 28be 3a20 a93a 3b65 8cbe
00000070: f26e 03bf 2e3c a7be 804a 973e 575f 4d3f
00000080: 745a d3bd 0815 f4be f62a 92bf 5fe4 a73f
00000090: cbdb a33e e0c8 043e c142 b3bd 3fd2 82be
000000a0: 7515 c1be db22 043e e21d 58be 6855 4dbf
000000b0: d251 0bbf 022a db39 d515 703f 2e85 acbe
000000c0: 25a7 6dbe 24c5 9f3d 99ba e2bc 10d1 fc3d
000000d0: 4e93 a5be caca 3ebf 785a 1b3f 1100 bdbe
000000e0: aaa3 98be bfe0 ca3d d5fa 2bbe 2ace 2cbf
000000f0: c2cc ee3e 3e90 20be a916 74bf ac42 183d

rnn_link_level.bias_ih_l3 f4 [8]
-0.3799812 -0.14791448 -0.37671843 0.2723496 -0.59475094 0.33895835 0.4510668 0.30300477
00000000: e58c c2be e576 17be 3de1 c0be 6871 8b3e
00000010: 9941 18bf f38b ad3e 3af2 e63e 7123 9b3e

rnn_link_level.bias_hh_l3 f4 [8]
-0.061001018 -0.57365215 -0.5602416 0.28178927 -0.59668535 -0.15011875 0.283935 0.26476267
00000000: 34dc 79bd deda 12bf fe6b 0fbf af46 903e
00000010: 5fc0 18bf bbb8 19be ee5f 913e f98e 873e

rnn_link_level.weight_ih_l4 f4 [8, 8]
0.3516678 -0.22760159 -0.34737724 0.2991849 -0.43856826 -0.39660516 0.35209203 -0.07726827
-0.20794158 -0.22130741 0.68307066 0.03890686 -0.37567052 -0.21614034 -0.7958422 -0.103938
0.04122378 -0.32343087 0.5184546 -0.37157238 0.4005546 -0.3908771 -0.3897848 -0.45078704
-0.36429465 0.0006256843 0.42141095 0.35155466 0.12985379 0.53926396 -0.07904077 -0.09774045
0.101159886 0.10720911 -0.37432128 -0.34864774 0.15469941 -0.1618412 -0.15251109 -0.34450877
-0.30385873 0.32095185 0.25336817 0.037918385 -0.68128043 0.7814692 0.48874417 0.23081589
0.53381693 0.22048683 0.0098147215 0.33602914 0.17028949 -0.53245515 -0.26274008 0.17556499
-0.37074566 -0.100134194 0.68239546 -6.476762e-05 -0.4284325 0.27532485 0.07460081 0.85836565
00000000: cd0d b43e 6410 69be 6edb b1be c32e 993e
00000010: 058c e0be d50f cbbe 6845 b43e d43e 9ebd
00000020: a3ee 54be 699e 62be b8dd 2e3f cd5c 1f3d
00000030: e357 c0be e553 5dbe 50bc 4bbf 72dd d4bd
00000040: 44da 283d bb98 a5be 71b9 043f bc3e bebe
00000050: 7e15 cd3e 0b21 c8be e091 c7be 8fcd e6be
00000060: d484 babe f604 243a 2dc3 d73e f9fe b33e
00000070: 64f8 043e 340d 0a3f 21e0 a1bd 252c c8bd
00000080: ea2c cf3d 7390 db3d 0aa7 bfbe f581 b2be
00000090: 8669 1e3e b3b9 25be de2b 1cbe 7463 b0be
000000a0: 5f93 9bbe cd53 a43e 79b9 813e 4f50 1b3d
000000b0: 6568 2ebf 5e0e 483f ad3c fa3e 005b 6c3e
000000c0: 3aa8 083f 4dc7 613e edcd 203c 030c ac3e
000000d0: 5e60 2e3e fb4e 08bf de85 86be 4fc7 333e
000000e0: 60d2 bdbe 2813 cdbd 78b1 2e3f dad3 87b8
000000f0: 815b dbbe 61f7 8c3e 4fc8 983d dabd 5b3f

rnn_link_level.weight_hh_l4 f4 [8, 8]
-0.46686676 -0.6040212 0.06060997 -0.11272076 -0.17793526 0.9342005 0.308158 0.39172006
-0.31875488 -0.37391704 0.5605893 -0.3847908 0.3438102 -0.62211984 0.5921087 -0.535347
0.4648302 0.47362882 0.71603805 0.1166083 -0.22666645 -0.49846604 0.25649512 0.04170401
0.44036788 0.060316477 0.22486687 -0.3098356 -0.5830667 -0.31826082 0.19530578 -0.27101824
0.3659888 -0.43398377 -0.46114418 0.29416615 0.13647543 0.53340465 -0.41210645 -0.020292118
-0.88859564 0.8124096 0.54874206 0.6213679 -0.3467436 -0.021096194 -0.067236215 0.7059735
0.57304895 -0.26510668 -0.23238039 -0.22201334 0.41504887 0.36006287 0.1308814 -0.074215874
-0.025743429 0.6261019 -0.023750953 -0.40886694 -0.29772216 0.13227688 -0.24773294 -0.47175267
00000000: 2909 efbe 22a1 1abf 2942 783d 24da e6bd
00000010: a934 36be c427 6f3f e3c6 9d3e 888f c83e
00000020: d733 a3be 0e72 bfbe c882 0f3f 4d03 c5be
00000030: e407 b03e 3f43 1fbf 7094 173f 800c 09bf
00000040: 39fe ed3e 7a7f f23e 454e 373f 55d0 ee3d
00000050: 401b 68be f136 ffbe 5453 833e d3d1 2a3d
00000060: e677 e13e 690e 773d 8043 663e c6a2 9ebe
00000070: dc43 15bf 15f3 a2be 3dfe 473e e7c2 8abe
00000080: e262 bb3e 1f33 debe 171b ecbe f29c 963e
00000090: 37c0 0b3e 358d 083f 9eff d2be a83b a6bc
000000a0: 017b 63bf 13fa 4f3f 5c7a 0c3f f711 1f3f
000000b0: 6188 b1be edd1 acbc 24b3 89bd aeba 343f
000000c0: 56b3 123f 10bc 87be 20f5 6dbe 7757 63be
000000d0: 4981 d43e 295a b83e c605 063e 7efe 97bd
000000e0: e2e3 d2bc 3748 203f 5c91 c2bc 0257 d1be
000000f0: 0a6f 98be 9773 073e b4ad 7dbe 9189 f1be

rnn_link_level.bias_ih_l4 f4 [8]
-0.03323983 -0.4031263 -0.3715975 -0.03071976 -0.40577278 0.21271141 -0.20539616 -0.087099954
00000000: 7d26 08bd 9266 cebe 0742 bebe 02a8 fbbc
00000010: 73c1 cfbe 05d1 593e 5f53 52be 7661 b2bd

rnn_link_level.bias_hh_l4 f4 [8]
-0.3425191 -0.21409528 0.1220148 0.26314694 -0.17471625 0.2227151 -0.37585306 -0.10481596
00000000: aa5e afbe cb3b 5bbe e5e2 f93d 32bb 863e
00000010: d1e8 32be 6d0f 643e d06f c0be c0a9 d6bd

rnn_link_level.weight_ih_l5 f4 [8, 8]
0.2748275 -0.32857475 -0.22333273 0.16696215 0.0040580244 -0.25302213 -0.25127566 0.19929399
-0.026177544 -0.1939682 -0.3230166 0.3479577 0.021854904 0.45856375 -0.56742907 -0.01132018
0.4518533 -0.22682194 -0.50414175 -0.25038338 0.067013025 -0.22906874 -0.43905815 -0.38844877
0.45062476 -0.30880994 -0.29425097 -0.1641862 -0.37726995 -0.03649464 0.31299028 -0.15476069
0.46136913 0.17275591 -0.48494783 0.050432593 0.16473003 0.24669665 -0.25439692 0.028457213
0.58717066 0.08914979 -0.24908711 -0.010057005 0.3517351 0.0964482 0.28971204 -0.0681864
-0.18409349 -0.17288654 -0.1390871 0.4716875 -0.092196174 -0.40222833 -0.08689183 0.24406292
0.116864085 0.51923335 0.84198374 0.03514388 0.024856547 0.31864142 -0.2801739 -0.50103384
00000000: 31b6 8c3e f33a a8be 56b1 64be 20f8 2a3e
00000010: 2df9 843b 1e8c 81be 34a7 80be b913 4c3e
00000020: 4a72 d6bc 9a9f 46be 6f62 a5be 8327 b23e
00000030: 0e09 b33c dec8 ea3e 0843 11bf 4778 39bc
00000040: 5159 e73e 0344 68be 6f0f 01bf 4032 80be
00000050: 203e 893d ff90 6abe 3bcc e0be c2e2 c6be
00000060: 4ab8 e63e 561c 9ebe 10a8 96be 6d20 28be
00000070: 8729 c1be 677b 15bd 4340 a03e 9679 1ebe
00000080: 9338 ec3e ede6 303e 154b f8be 6892 4e3d
00000090: fdae 283e 0c9e 7c3e 5040 82be 1a1f e93c
000000a0: d150 163f 2a94 b63d b110 7fbe 23c6 24bc
000000b0: 9f16 b43e a286 c53d 2355 943e 50a5 8bbd
000000c0: 0183 3cbe 2b09 31be d96c 0ebe 0681 f13e
000000d0: 59d1 bcbd dff0 cdbe 58f4 b1bd a1eb 793e
000000e0: 7056 ef3d 7aec 043f 3f8c 573f 07f3 0f3d
000000f0: f59f cb3c f824 a33e f472 8fbe c143 00bf

rnn_link_level.weight_hh_l5 f4 [8, 8]
0.23741516 0.4828032 0.13698071 0.10035183 0.42285803 -0.21531422 0.006621739 -0.021681322
-0.057100907 0.024636935 0.02545315 0.06755278 -0.57140183 -0.34249815 0.1709799 0.034067564
0.20589404 0.165693 0.16690351 0.14621939 0.18097226 -0.07106446 0.11263488 -0.17892037
0.07414047 -0.0018628752 -0.072748475 -0.15167074 -0.1635043 0.0051236 0.2578139 0.24750072
-0.23967072 0.3667766 0.03498518 -0.17740943 0.045177434 -0.3963973 0.195218 0.021771727
-0.13102494 -0.017364005 0.10555501 0.061664023 -0.07032762 0.034148026 -0.27991903 -0.21262406
0.0575071 0.32549492 0.28596875 0.32232043 -0.026762994 -0.18914585 -0.23307636 0.44576314
0.04462456 0.17655689 0.01357769 0.4667583 0.30891794 -0.08776221 0.02501111 -0.13657743
00000000: f61c 733e fb31 f73e ac44 0c3e 4385 cd3d
00000010: d980 d83e 557b 5cbe 2cfb d83b 079d b1bc
00000020: a4e2 69bd 66d3 c93c 2083 d03c 1d59 8a3d
00000030: 6447 12bf eb5b afbe 5b15 2f3e 6e8a 0b3d
00000040: e3d5 523e 6dab 293e c1e8 2a3e 89ba 153e
00000050: cb50 393e 3e8a 91bd 1ead e63d e736 37be
00000060: f5d6 973d b82b f4ba 27fd 94bd 934f 1bbe
00000070: ac6d 27be dfe3 a73b 2f00 843e d470 7d3e
00000080: 3e6c 75be 24ca bb3e 9f4c 0f3d d1aa 35be
00000090: f90b 393d 96f4 cabe 3ae7 473e 9f5a b23c
000000a0: 672b 06be f53e 8ebc 3a2d d83d 6a93 7c3d
000000b0: ed07 90bd cdde 0b3d 8c51 8fbe 1fba 59be
000000c0: 918c 6b3d 45a7 a63e 7f6a 923e 2f07 a53e
000000d0: 113e dbbc 73af 41be 92ab 6ebe 113b e43e
000000e0: 3ec8 363d 54cb 343e f674 5e3c f2fa ee3e
000000f0: 7e2a 9e3e acbc b3bd 19e4 cc3c f4da 0bbe

rnn_link_level.bias_ih_l5 f4 [8]
0.21001342 0.3633546 0.38121358 -0.16342409 0.18226202 -0.37833634 -0.27842054 0.03823675
00000000: c20d 573e 9d09 ba3e 6d2e c33e a558 27be
00000010: e5a2 3a3e 4db5 c1be 238d 8ebe 239e 1c3d

rnn_link_level.bias_hh_l5 f4 [8]
-0.061421998 0.45367008 0.1664951 -0.1335106 0.13499606 -0.1122445 0.014346317 0.2266074
00000000: a295 7bbd 7247 e83e b17d 2a3e 01b7 08be
00000010: 683c 0a3e 72e0 e5bd d10c 6b3c c50b 683e
